ml-backend/models/reroute_model_final.pth (torch, 480771 bytes, 21 tensors)

node_encoder.0.weight f4 [128, 5]
000000 55 e9 06 3e cb 99 ef 3d 09 9b 0f be 94 13 d2 3e
       0.13174947 0.116992556 -0.14023985 0.41030562
000010 2e 66 bc 3e 0c 4e 51 be 7c 1d 88 3e 42 de bd 3e
       0.36796707 -0.20439929 0.26584995 0.37083632
000020 98 12 b0 bd e2 58 be be 8f 61 95 3e e6 c5 b5 3e
       -0.085972965 -0.37177187 0.29175994 0.35502547
000030 ca e8 84 be 1f 32 57 3e 42 38 93 bd dc 55 ed be
       -0.25958854 0.21015213 -0.07188465 -0.46354568
000040 1f 28 81 3e 2e 3e 07 be 76 f0 9f 3e ee 95 9b be
       0.25225922 -0.13207313 0.31238145 -0.30387825
000050 c1 07 a0 3e 24 30 42 be 45 c3 59 bc 9b 10 32 be
       0.31255916 -0.18963677 -0.013291185 -0.17389147
000060 ed 8b e4 3e f9 b6 05 bf 84 bc 88 3e 43 5a cc be
       0.44638005 -0.5223232 0.26706326 -0.39912614
000070 28 78 93 be e8 f0 24 be 47 f7 f5 be 5a 3d 89 3e
       -0.2880261 -0.16107523 -0.4804022 0.2680462
000080 c0 75 13 bd 11 98 a4 be 5b 15 1a bc 88 44 c1 3d
       -0.036000967 -0.32147267 -0.009404506 0.094368994
000090 3e fb e5 bd 7c fb 8b 3d 26 3e 9f be dc 47 cb 3e
       -0.11229561 0.06835076 -0.31102103 0.39703262
0000a0 73 d8 21 3e 33 f7 67 bd e2 83 44 be ac c4 85 3e
       0.15805225 -0.056632232 -0.19190934 0.2612661
0000b0 fd f3 94 bd d8 b5 c0 bd c2 1f af 3e b1 29 ad bb
       -0.072730996 -0.09409684 0.34203917 -0.005284511
0000c0 20 5f f3 bd 66 d4 9c be 65 29 cf bc 52 52 bc 3e
       -0.11883378 -0.30630797 -0.025288293 0.36781555
0000d0 43 c8 22 bc 75 89 2f 3d d6 7d cf be 2d bc f7 bd
       -0.009935441 0.0428557 -0.40525693 -0.120964386
0000e0 e0 dc 7f 3d 8b d5 fd bd 13 9f 02 3e dc 70 d1 be
       0.062466502 -0.12394246 0.12755994 -0.40906417
0000f0 fc ed 0a 3e 24 57 c0 be c1 2f bf 3e 92 e1 3d bc
       0.13567346 -0.37566483 0.3734112 -0.011589425
000100 4a e2 86 3d 08 11 4f be d5 37 8d 3d ef 32 49 3e
       0.0658613 -0.2022134 0.06895415 0.19648336
000110 0c 8a a5 ba 36 f4 49 be 6e 5b c6 bb 86 c4 cd 3c
       -0.0012629642 -0.19722065 -0.0060533797 0.025118124
000120 b7 e9 41 3e 24 30 a6 3d 28 b4 72 3e fc 3a 32 3e
       0.18936811 0.08114651 0.23701537 0.17405313
000130 5b 6c af be 73 06 e2 be 68 bb c8 3e 73 f9 03 bf
       -0.34262356 -0.44145545 0.3920548 -0.51552504
000140 e0 13 d3 3e cc 7a 9c be 5f 28 c0 bc 70 ae 95 3e
       0.412261 -0.30562437 -0.02345675 0.29234648
000150 56 a6 a2 3e 62 90 5d 3d 82 d0 f2 3d b1 03 e3 be
       0.3176753 0.054092772 0.11856176 -0.44338754
000160 95 8a a7 be ec 91 95 be d7 da 96 3e 81 30 0a 3e
       -0.32722917 -0.29212892 0.29463837 0.13495065
000170 d2 4f 19 be 2b c0 90 3d 7e b7 bb be b7 dd 58 be
       -0.14971855 0.07067903 -0.3666343 -0.21178328
000180 85 da a2 be c1 77 10 be 71 ac ea 3e 25 93 c6 3c
       -0.31807342 -0.14108182 0.45834687 0.024240086
000190 12 7f 58 be 3b 01 27 3e a5 9d 83 be d3 23 84 3e
       -0.21142223 0.16309063 -0.2570621 0.25808582
0001a0 99 22 b6 bd 2f 59 4d 3e 63 87 ae be c0 1e b8 be
       -0.08893318 0.20053552 -0.34087667 -0.3596096
0001b0 eb 96 b5 bd a6 62 c6 be c8 08 63 3d e1 e2 a1 3e
       -0.08866676 -0.38747138 0.055428296 0.31618407
0001c0 60 41 fd be 54 a2 f3 be c2 e3 de bd 90 9b 0d be
       -0.4946394 -0.47584784 -0.10883285 -0.13828874
0001d0 47 f3 a4 3e e8 6d e3 be e2 c2 b3 3d 95 e4 a6 3e
       0.32216856 -0.4441979 0.08777405 0.3259627
0001e0 ed c9 92 3e 1a d9 d2 be ed 2b c5 be 8c 6b ab 3e
       0.28669682 -0.4118126 -0.38510075 0.3348049
0001f0 5d 81 86 3e 79 a1 10 be 8b 50 ed 3d fb be 25 3e
       0.2627057 -0.14124097 0.11587628 0.16186135
000200 f7 7d c1 be d3 c4 19 bd bb 63 01 3d c0 96 01 3e
       -0.37791416 -0.03754122 0.03158925 0.12655163
000210 49 0a c3 3d dd 6f 1b 3e 41 47 84 3e 56 91 f8 bd
       0.09523446 0.15179391 0.25835612 -0.12137096
000220 47 b4 60 be be b6 11 3f 0e de 76 3e 33 24 37 bd
       -0.2194377 0.5691947 0.24108145 -0.044712257
000230 2f 2e c8 bd 32 bd 83 3e 41 84 ca be a6 a4 6a 3d
       -0.09774434 0.25730282 -0.39554027 0.057285927
000240 3f a6 b0 be 78 0c 04 3e bf 70 1b bd 5a fa ba 3e
       -0.34501836 0.12895381 -0.03794932 0.36519128
000250 ba 66 b4 b9 01 5b 22 3e b4 15 55 bd 4c 3a 12 be
       -0.00034408813 0.15855028 -0.05202265 -0.14280051
000260 42 4c 17 3e bf 6e b1 3e eb 01 cc 3e d4 8b 43 be
       0.14775184 0.34654805 0.39845213 -0.19096309
000270 03 b0 1b 3d bb 90 9c be ff 8e 22 bd 2f a0 a4 3e
       0.038009655 -0.3057917 -0.039687153 0.3215346
000280 71 e4 6a 3e 60 3f 04 bf 5b 85 da 3d 65 86 54 be
       0.22938706 -0.516592 0.10669967 -0.20754392
000290 fd 15 cd bd 50 a9 fb be 61 10 b2 be 01 c6 b7 3e
       -0.100139596 -0.49152613 -0.3477812 0.35893252
0002a0 31 63 51 3e b2 3b fd 3d 12 13 4a 3e 7c c4 a9 be
       0.20447995 0.123649016 0.19733837 -0.33157718
0002b0 db a1 c5 be e9 e9 32 be e3 93 0a 3f 5b c6 b7 3d
       -0.38600048 -0.17472042 0.5413191 0.0897338
0002c0 7c 54 c2 3e d2 bc bb 3d 52 49 73 be a2 2e 2a be
       0.3795508 0.09166874 -0.23758438 -0.16619352
0002d0 d9 6a a5 be e1 16 9b be 10 9c fa 3d bf bf bd be
       -0.3230808 -0.30290893 0.12236798 -0.37060353
0002e0 1d ec 58 be 61 57 8a 3e 2e e3 ad be cc e6 7f be
       -0.2118382 0.2701979 -0.33962387 -0.24990386
0002f0 33 71 a0 3e 2e 1b bc be f0 7c 24 be 75 ec 98 3e
       0.31336364 -0.36739486 -0.16063285 0.29867902
000300 45 a3 8c 3e 3c 0b bf 3d d0 96 8b be 15 3a 40 bd
       0.27468315 0.09328315 -0.27263498 -0.04693039
000310 3c db 23 be d3 8e 6c 3e 4c 27 27 3f 20 69 64 3e
       -0.160016 0.23101358 0.6529434 0.22305727
000320 15 1a db be 8b 46 81 3d bd 16 9b be 76 b6 a7 3e
       -0.42793337 0.06312283 -0.30290785 0.32756394
000330 ea c1 a4 be 24 4e 83 3d 79 75 28 bd ca 9b d8 3e
       -0.32179195 0.064113885 -0.041127656 0.42306358
000340 51 91 aa bd 49 59 4d bd 30 f2 7f be 91 33 23 bd
       -0.08328498 -0.050133977 -0.24994731 -0.0398441
000350 89 49 7d be c6 f6 e1 3d 72 68 9c be b0 9d 53 be
       -0.24735083 0.110333964 -0.30548435 -0.20665622
000360 22 84 87 3e 14 2c 77 bd 07 dd a4 3e fc 54 e3 3e
       0.26467997 -0.06034477 0.3219988 0.44400775
000370 fb a1 2f be f9 54 86 be ef 96 c4 3d f1 3d d5 3c
       -0.17151634 -0.26236704 0.09599101 0.026030513
000380 24 f5 15 3e 63 e9 9a bc 99 fa ab 3e 91 6a 61 bd
       0.14644295 -0.018910116 0.33589628 -0.05503327
000390 d7 b3 9e be 79 c3 da 3e 39 58 f0 3d 91 43 9a be
       -0.30996582 0.4272726 0.11735577 -0.30129674
0003a0 f8 9b d8 3e e2 04 85 bd d0 60 23 be b4 11 c9 bd
       0.42306495 -0.06495072 -0.159549 -0.0981783
0003b0 aa 5c cd be f4 d8 8b 3e af 9b d8 3e 5a c7 61 3e
       -0.4010976 0.2731396 0.42306277 0.22048703
0003c0 fd b4 2e bd 8d b7 9c 3b bb 43 8f 3e dd 2b 50 3e
       -0.042653073 0.004782623 0.27981362 0.20329233
0003d0 3e a7 e3 be aa d9 53 3e f0 26 89 3e 8b 03 ac bd
       -0.44463533 0.20688501 0.2678752 -0.08399113
0003e0 d4 c7 f3 be b0 a9 b1 be 68 ea ae 3e f5 42 48 be
       -0.47613394 -0.34699774 0.34163213 -0.19556792
0003f0 6f c7 6a be 07 89 09 be 28 ce cc 3e 83 8a 39 3e
       -0.2292764 -0.13431178 0.40001035 0.18119244

node_encoder.0.bias f4 [128]
000000 e7 31 65 be e4 c7 ad 3e 16 81 32 be e2 fc 61 3e
       -0.22382317 0.33941567 -0.17432055 0.22069123
000010 82 08 b5 3e 3f 6e 68 3e c4 a0 d3 3d b6 63 90 3e
       0.35358053 0.22698306 0.10333398 0.28201073
000020 8e ce 0a be 4a 60 7b 3d 7d ac 20 be 43 08 bc be
       -0.13555357 0.061371125 -0.15690799 -0.36725053
000030 0b 0b 8c 3e bf 57 c4 3e 4b 34 18 3e 05 1b 9f be
       0.27352175 0.38348195 0.14863698 -0.31075302
000040 aa 58 00 3e 6f 18 d5 3e 03 53 a1 be 53 f7 9b 3e
       0.12533823 0.41620204 -0.31508645 0.3046213
000050 f2 4c ab 3e 50 42 64 be 8b 51 8d be 20 22 58 3c
       0.33457142 -0.22290921 -0.27601275 0.01319173
000060 24 9b d9 be 3e 90 d5 be 3f b3 82 be b8 82 4a 3e
       -0.42501175 -0.4171161 -0.2552738 0.19776428
000070 e1 3e 4c be 26 e1 ea be b1 4f df 3e 23 91 2c 3e
       -0.19945861 -0.458749 0.43615487 0.1685224
000080 0b a7 6a 3e 8a 50 c3 bd af d3 db 3c aa 07 a2 be
       0.22915284 -0.09536846 0.026834337 -0.31646472
000090 d3 43 6e be 1b 10 ab be 7f ae c4 be db 10 f1 3e
       -0.2326806 -0.33410725 -0.3841438 0.47083172
0000a0 a4 d8 bd 3e 6a 2f ef 3d c1 a2 b3 3e c9 6f e8 be
       0.37079346 0.116789654 0.3508511 -0.45397785
0000b0 94 f7 34 be 9d 6f 6a be 4d f1 84 3d b3 56 bf 3e
       -0.17672569 -0.2289414 0.06491337 0.37370834
0000c0 7f e3 f2 3d ed 21 da be a9 8a 71 be b3 10 c6 be
       0.11859798 -0.42604008 -0.23588051 -0.38684615
0000d0 32 7f 45 be dc 95 91 b9 59 69 ea be 24 f5 3c be
       -0.19286802 -0.0002776821 -0.457835 -0.18452889
0000e0 0e f3 db be 63 e5 82 3e ca 44 cb be 48 0a ca 3e
       -0.42958874 0.25565633 -0.3970092 0.3946097
0000f0 00 c2 a8 be d7 58 c1 3e 61 71 ce bd d3 f8 4f be
       -0.3296051 0.37763092 -0.10080219 -0.20309763
000100 a0 09 50 3d 6c 76 37 be 95 a6 8a bd b0 f1 af bd
       0.05079043 -0.17916268 -0.06770054 -0.0859102
000110 5b 9d 44 3e 7c be 35 3b 8d c4 07 be 00 a8 e6 bc
       0.19200651 0.0027731946 -0.13258572 -0.02815628
000120 36 c7 bf be 47 0c 8e bc 93 1a 22 3e 1a 3d 4f 3e
       -0.37456673 -0.017339839 0.1583045 0.20238152
000130 de d8 8c 3e 1d 70 e3 3e 94 21 d6 be 48 f6 0c 3e
       0.27509207 0.44421473 -0.41822493 0.13765824
000140 69 b0 46 3d f9 aa c7 bd c1 2e 5d be c5 5f 9c 3e
       0.04850808 -0.09749407 -0.21599866 0.30541816
000150 91 1e 84 bc 6f 5f a7 bd b0 ee 96 3e ad ec 6d be
       -0.016127856 -0.081724994 0.2947898 -0.23234816
000160 4b cc 8a 3e 80 61 27 3d 96 a5 95 be a2 a8 65 3e
       0.27108988 0.040864468 -0.29227895 0.2242761
000170 32 89 23 bd ce 46 b4 3d 01 05 74 be 95 a7 eb 3e
       -0.03992576 0.088025674 -0.23830034 0.46026292
000180 c5 2b ac be b8 0f 82 be af 3b 1f 3e 9e 5d 92 3d
       -0.33627144 -0.25402617 0.15550111 0.07146762
000190 1f 56 a8 3e 2e fb d2 be ba aa de be 58 8b 99 be
       0.32878205 -0.4120726 -0.4348963 -0.29989123
0001a0 74 8d bf be e1 d8 d7 3d 38 b5 6b 3e d1 b9 48 3e
       -0.37412608 0.10539413 0.23018348 0.19602133
0001b0 42 0c 03 3e b7 31 ac 3e 90 42 0d bd 81 2c 44 3e
       0.12797645 0.3363168 -0.034487307 0.19157602
0001c0 d8 3c b9 be c6 13 99 bd ad 36 9d 3e e6 98 be bd
       -0.36179233 -0.074744746 0.30705777 -0.09306507
0001d0 ad 17 63 3e a9 2f a4 3e 7d 26 90 be b2 86 e1 ba
       0.22177 0.32067612 -0.28154364 -0.001720628
0001e0 00 5d 86 3d a0 10 32 be 52 0e 9c be ed 96 69 be
       0.06560707 -0.17389154 -0.30479676 -0.2281148
0001f0 ef 8a 27 3e 62 9e 8b 3e b3 06 c8 bd c0 5b 62 be
       0.16361593 0.27269274 -0.09766903 -0.22105312

node_encoder.2.weight f4 [128, 128]
000000 e7 c5 0f bd ee 00 71 3d 18 60 96 bd 71 a0 e2 3d
       -0.035100844 0.058838777 -0.07342547 0.11065758
000010 9a 7c 18 3d 7a d4 e3 ba 44 b3 8b bd c1 92 5c 3d
       0.037228204 -0.0017382049 -0.068213016 0.053850893
000020 c8 c4 80 3c 6e bf 6a 3d b1 d4 55 3d 74 19 96 3b
       0.015718833 0.057311468 0.05220479 0.004580671
000030 04 04 15 3d 17 0e e7 3d fa 44 c0 bc 45 8d 1c bd
       0.036380783 0.11281984 -0.02347039 -0.038220663
000040 a4 20 65 3d ca 94 b3 bb 07 c5 18 bd f2 d5 35 bd
       0.05593933 -0.0054803835 -0.037297275 -0.044393487
000050 7b ad 80 3d 79 88 83 3d e9 e0 af 3d c1 b0 68 3d
       0.06283089 0.064225145 0.0858782 0.05680919
000060 42 1b bc bc 2d ee db 3d 55 a5 8b 3c 16 5a 10 bc
       -0.022962216 0.10738788 0.01704661 -0.008810541
000070 be 7e a3 bd 4e a6 b8 3c 32 22 7e 3d 5c c0 54 3e
       -0.079831585 0.022540238 0.06204433 0.20776504
000080 54 e2 dc bc 6e 45 f9 bc 9e 05 89 3d 38 c6 be bd
       -0.02696339 -0.030428614 0.066905245 -0.09315151
000090 cf 3b 60 3d 45 16 2a bc 0d 63 95 bd 89 f5 b3 3d
       0.054744538 -0.010381286 -0.07294283 0.087870665
0000a0 59 ea 1b 3e a2 4b 89 3c 07 a4 06 3d e4 2a 81 3d
       0.15226115 0.016759697 0.032871272 0.06307009
0000b0 72 62 78 bd 75 21 84 3d 41 9c 9d bc 17 1c 98 bd
       -0.06064076 0.06451694 -0.019239547 -0.07427233
0000c0 62 73 20 bd 1f 77 8c bd 40 b6 b0 3d 15 1d 73 bc
       -0.039172538 -0.06858658 0.086285114 -0.014838477
0000d0 cb d9 3f bd fa 42 6f 3d 4b d9 95 3d 50 47 02 3e
       -0.046838563 0.058413483 0.07316836 0.12722516
0000e0 67 de ef bc b4 42 a5 bb d7 29 8f bd 32 84 65 3c
       -0.029280854 -0.005043352 -0.06990402 0.014008569
0000f0 fa 44 2a bd 35 e0 69 3c 23 14 96 bd af 8f 18 bc
       -0.041569687 0.0142746465 -0.073280595 -0.009311601
000100 88 11 99 3b af 08 2d bd 6c 8b fc bc f0 c1 8b bd
       0.0046712793 -0.04224461 -0.0308282 -0.068241
000110 ea 1b 68 3a 58 d6 aa 3d 1b 99 67 3d 9a 4c 30 bd
       0.0008854257 0.08341664 0.056542497 -0.043041803
000120 00 95 4c 3d c9 97 33 3d d8 a3 50 3d 7d a0 2f 3d
       0.049946785 0.043845925 0.050937504 0.042877663
000130 e5 76 cf 3d 29 9c 38 3c 40 55 06 3d ae 56 9f 3d
       0.10130099 0.0112677 0.032796144 0.07780205
000140 ce df 81 bd 3e a3 86 3d 84 93 a1 bd 25 3c 86 3c
       -0.063415155 0.06574105 -0.078894645 0.016386101
000150 97 f2 30 bd fe 0d 8f 3d 79 6a 74 bd c2 f8 43 39
       -0.0432001 0.06985091 -0.059671853 0.00018689319
000160 b1 05 c8 bc 23 cc a0 bd 0c 14 95 3d 58 f3 b5 bc
       -0.024416776 -0.07851436 0.07279214 -0.022210762
000170 bf b3 8b bd 17 43 2d bd be f3 b4 3c 4e 51 a3 3d
       -0.06821393 -0.04230031 0.022088882 0.07974492
000180 56 7b b3 bd ae 4a a4 bb f0 ad 89 3d b9 e5 ba bd
       -0.08763759 -0.0050137853 0.06722629 -0.09125847
000190 4a fa 09 bd cc a6 42 3d 32 37 8d bc db 27 8c bc
       -0.03368596 0.04752235 -0.017238233 -0.017108848
0001a0 af a1 38 3d 34 e8 9c 3d a3 4f 9f bd 51 ee 16 3d
       0.04507607 0.07661477 -0.077788614 0.03684837
0001b0 28 4a aa bd d6 c7 55 3c 4d ee b0 bd 41 02 40 3c
       -0.083149254 0.013048133 -0.08639202 0.011719287
0001c0 84 96 ab 3c b2 42 51 bd f9 22 b4 bd 02 18 e3 3c
       0.020945795 -0.051088996 -0.08795733 0.027721409
0001d0 c8 5e 51 3e dd 1a 81 bd 68 b1 9d bc b1 48 2d bd
       0.20446312 -0.06303952 -0.019249633 -0.042305652
0001e0 63 52 32 bc 93 88 45 bd b1 03 15 3d ea 3f 3a bd
       -0.0108839 -0.04822595 0.036380474 -0.04547111
0001f0 02 58 f5 bd be 44 46 3d bb 1e b8 3b 1f 40 cf 3d
       -0.11979677 0.0484054 0.0056188977 0.10119652
000200 8a a8 5f 3b 91 a2 ed bc 00 ce 39 3d 34 ad 33 3d
       0.0034127557 -0.029008182 0.045362473 0.04386635
000210 86 e7 7e 3d 39 12 37 3d 6a 05 a2 bd 86 f5 62 3d
       0.062232517 0.044695113 -0.07911189 0.05540993
000220 98 c0 fe 3c dc 32 83 3d 09 a7 9d 3d 87 dd c5 3c
       0.031097695 0.06406185 0.07697875 0.024153484
000230 cc b4 87 3d 42 94 0c bc 2f 15 17 bd 33 85 c9 bc
       0.06626281 -0.008580269 -0.036885437 -0.024599647
000240 9a 0e 67 3d 19 34 0d 3c a8 59 9d bc fd 27 41 3d
       0.05641041 0.008618378 -0.01920779 0.047157276
000250 9f a8 cf bc 3d bd b2 3d ee 70 db 3d 5a 5a 35 3d
       -0.02534896 0.087275006 0.10714899 0.04427562
000260 e7 56 6e bd af 13 b2 3d 21 1b 9c bd 68 e7 ce bd
       -0.058188345 0.086951606 -0.07622362 -0.10102731
000270 59 1e a9 bc 93 0e da bc 16 5f 52 bd c1 31 e8 3c
       -0.020644354 -0.026618278 -0.051360212 0.028344037
000280 35 3d 4f 3d 6a a7 b5 bb c1 35 20 bd a9 83 a9 3d
       0.05059548 -0.005543639 -0.039113764 0.08277065
000290 b3 f0 46 bd ed 61 1d bd 3d 99 0d bc 3d f1 1d be
       -0.048569392 -0.038423467 -0.008642492 -0.15424056
0002a0 a9 de 9e 3d 5b bc 7b 3c be b5 f0 3d 67 12 85 bd
       0.07757313 0.015364732 0.117534146 -0.064976506
0002b0 62 dd 85 3d 84 5d f2 3d ee f3 2d 3d 64 5e 2d bd
       0.06536366 0.11834243 0.042468958 -0.042326346
0002c0 f9 86 66 bd b9 47 ec 3d 50 79 27 bd f0 a3 22 bd
       -0.056281064 0.115371175 -0.040887177 -0.039707124
0002d0 c5 29 f0 3d 83 e4 4a bd e4 e8 86 3d a2 53 8e 3d
       0.11726717 -0.049534332 0.06587389 0.069495454
0002e0 01 e0 9b 3d 42 f1 bd 3c fb 8b f2 bc 40 03 7e 3a
       0.07611085 0.02318633 -0.029607764 0.00096898153
0002f0 c6 b7 3f bc 10 5f 00 3d 09 97 f6 3c cf 38 62 bd
       -0.01170153 0.03134066 0.030101316 -0.05522996
000300 84 ba 44 bd 43 28 24 bd 2e 2d 8b 3c 7e 77 83 bd
       -0.048029438 -0.04007746 0.016989317 -0.06419276
000310 9b 4c 13 3d f4 27 2d bb a5 74 81 bd ba 37 c0 bc
       0.03596173 -0.002642152 -0.06321076 -0.023464072
000320 28 c3 41 bd de 71 97 3d 5f ef 67 bd 92 de 89 3d
       -0.047305256 0.07394765 -0.056624766 0.06731905
000330 7f 35 b0 3d 0f 31 21 bd 78 32 95 3c e1 00 a6 bd
       0.086039536 -0.039353427 0.018212542 -0.081056364
000340 20 82 93 3c 30 48 e9 3c 08 80 a3 3d ba e2 b7 bb
       0.018006384 0.028476804 0.079834044 -0.0056117447
000350 b9 6d 16 3d bd 43 5d 3a fa c8 a4 3d 78 87 a2 bd
       0.036725733 0.0008440575 0.08046146 -0.07935995
000360 b0 cb e8 bc 2e 6f 01 bd 80 63 19 3d 84 28 d7 3d
       -0.028417438 -0.03160017 0.037448406 0.105057746
000370 8a fd cb 3d a3 79 27 bd 39 43 d6 bc 02 dc 0b bc
       0.09960468 -0.040887486 -0.026155101 -0.008536341
000380 4c e2 08 bd 61 aa 68 bd bf 14 69 3d f1 b4 d8 3c
       -0.03341894 -0.05680311 0.05690455 0.026453467
000390 50 b2 93 3b 06 8b 20 bd e1 b2 99 3d d6 d5 f2 bc
       0.0045073405 -0.039195083 0.075048216 -0.02964298
0003a0 72 9e eb 3c f7 50 5b bc 8c 06 0e 3d 92 26 4e 3c
       0.028762076 -0.013386003 0.034674212 0.012582438
0003b0 f7 65 77 bd 94 f1 b9 bd 10 2e 4c bc 63 bf b5 3d
       -0.060399976 -0.090792805 -0.012462154 0.08874395
0003c0 c0 6a 45 bd 3b ef 08 bd 40 51 9c 3e 58 4c 73 3d
       -0.048197508 -0.033431273 0.3053074 0.05939898
0003d0 55 33 e7 bc 2f 09 df 3c 9a 45 f2 3c 8e e0 60 bc
       -0.02822272 0.027226059 0.029574204 -0.013725413
0003e0 70 b3 3f bd f0 28 90 bd 84 88 1a 3c da 1c c6 bc
       -0.046801984 -0.07039058 0.009431962 -0.02418368
0003f0 15 72 c5 3d 3e 63 a7 bd 5c 4a 2c 3d ec 84 d0 3d
       0.096409 -0.08173226 0.042063102 0.10181603

node_encoder.2.bias f4 [128]
000000 81 01 26 3d 15 6d 99 bd 0a 06 9a bc 32 99 5a bd
       0.040528778 -0.07491509 -0.018801708 -0.053368755
000010 5b 12 e4 3d c1 85 5c 3d da 5b d1 bd 41 a7 65 3d
       0.111363135 0.053838495 -0.102225974 0.05606771
000020 6b 48 1d 3e e1 a9 42 bd 68 ab 6a 3d 81 b4 24 3d
       0.15359657 -0.04752529 0.057292372 0.040211204
000030 f1 17 e5 bc 8a 82 94 3c 19 b3 42 3d 6a 7b 2c bd
       -0.027965518 0.018128652 0.047534082 -0.042109884
000040 cd 64 5d 3d 55 9c 04 ba ad fe ad 3d 08 7d 04 3d
       0.05405121 -0.00050586957 0.08495841 0.0323458
000050 d9 72 5d bb 8e 20 05 bd cd d3 23 3c ed e7 a7 3d
       -0.0033790378 -0.03250175 0.009999228 0.08198533
000060 40 96 5d 3c 39 20 4b bd 3d da 5e bd 27 b8 07 bb
       0.013524592 -0.049591277 -0.054407347 -0.0020709129
000070 18 0a 0f be d0 3f 28 bd 48 9b 66 3b 7a 11 cc bd
       -0.13968694 -0.04107648 0.003518777 -0.09964271
000080 2a 21 98 3c e9 b1 9e 3d 33 7b 2b bd 46 fe 9e 3d
       0.018570501 0.077487774 -0.04186554 0.077633426
000090 1c aa a2 3d f2 88 10 be 95 df 6c bd 70 ab 75 3d
       0.07942602 -0.1411474 -0.057830412 0.05997795
0000a0 5b 79 2c bd 13 f3 7d bd f5 8a ba bd 57 ec e2 3d
       -0.04210792 -0.06199939 -0.09108535 0.110802345
0000b0 5a d3 02 be cc 50 24 bd 96 e2 34 bd 6b 19 62 3d
       -0.12775937 -0.040116116 -0.0441614 0.05520002
0000c0 97 31 e8 3c db 12 95 bd 8a 61 51 3d c3 61 5b bd
       0.028343959 -0.07278987 0.05111841 -0.05356003
0000d0 8d f0 b1 3c f5 6a d0 bc 11 44 11 3e 96 34 46 bb
       0.021721149 -0.025441626 0.14186122 -0.0030243746
0000e0 73 fb 12 3c 2a a8 c6 bc ab 41 15 bd 45 81 98 bd
       0.008971083 -0.024250109 -0.03643958 -0.07446531
0000f0 63 fb 11 bd f7 2e a0 bd 73 f4 ca 3d eb 2e 5d bd
       -0.03564013 -0.07821458 0.09909906 -0.053999823
000100 19 ee d5 bc 53 e0 af 3c 74 d0 d2 bd 29 2c 84 3c
       -0.02611451 0.02146927 -0.102936655 0.016134338
000110 ef ab 97 bd 71 31 b0 3c 72 cd c0 3d 34 87 d2 bc
       -0.074058406 0.02150795 0.094141856 -0.025699235
000120 e5 a8 03 bd 01 6f 52 3c d1 f9 b3 3d 6b 2b 05 be
       -0.032143492 0.012843848 0.08787883 -0.13004844
000130 a1 23 38 3d 25 7b aa 3d aa 32 38 3d 52 4d 87 3d
       0.044955853 0.08324269 0.044970192 0.066065446
000140 25 30 cf bc e4 b5 b4 3d 55 b8 c0 3c 5c a4 11 3d
       -0.025291512 0.088237554 0.023525396 0.035557136
000150 c1 67 71 bc 00 91 8c bc 29 7d 53 3d e4 15 15 3c
       -0.0147342095 -0.017158985 0.051633034 0.009099457
000160 0c b1 f7 3d 39 0a bb bd f3 5d ee bd f7 4b 95 bd
       0.12094316 -0.09132809 -0.11639013 -0.0728988
000170 6b 76 00 bd e4 65 af bd 67 58 31 3e 3a 33 7d 3d
       -0.031362932 -0.08564356 0.17318879 0.06181643
000180 4c 77 99 3d b9 b1 78 bd 54 48 eb bb aa 54 ec bb
       0.07493457 -0.060716365 -0.007180253 -0.007212241
000190 8d 4b b4 3c 68 be 02 3e 2a 9d 4c bd 84 dc 5f bd
       0.022008682 0.12767947 -0.04995457 -0.05465366
0001a0 d0 c8 04 be 00 e0 1e bd fe 71 0e 3d a2 f6 11 bd
       -0.12967229 -0.03878784 0.03477668 -0.035635598
0001b0 29 a2 8c bd 85 ed 28 3b 2b 16 29 3e c2 10 a1 3d
       -0.06866867 0.0025776338 0.16512363 0.078645244
0001c0 fa 76 26 bd 77 cc 0c 3d 9b 99 74 bd cd ea 6c 3d
       -0.04064081 0.03437468 -0.059716802 0.05784111
0001d0 ca 85 c8 3d 38 dc 92 bd 0d 06 ee 3c 96 3c 71 bd
       0.09791143 -0.0717091 0.02905562 -0.05889567
0001e0 d6 df d4 bc 30 e0 62 bd 39 c6 a2 3c ff 45 49 3d
       -0.02598564 -0.055389583 0.01986991 0.04913902
0001f0 6c 4b 93 bc b8 56 98 3d 06 8a 31 3d 0f 30 b9 bc
       -0.0179803 0.07438415 0.04334452 -0.022605924

edge_encoder.0.weight f4 [128, 2]
000000 f5 0d 08 3f c2 1f d6 be 20 75 47 be 49 f2 24 bf
       0.53146297 -0.41821104 -0.19478273 -0.644322
000010 e3 1d 8d be b7 83 2d 3f bc 36 84 3e f7 bf 13 3f
       -0.27561864 0.67779106 0.2582301 0.5771479
000020 b8 d5 24 bf 96 1e 82 be 97 a6 0b 3f 1a ee a9 3e
       -0.6438861 -0.2541396 0.5455107 0.3318947
000030 76 6f 34 bf e4 e4 8b 3e 26 5e ae be c0 6e 75 3d
       -0.70482576 0.27323067 -0.34056205 0.059920073
000040 fd 41 0e bf 20 e6 00 bf e8 81 47 3e eb 37 19 bf
       -0.5556944 -0.5035114 0.19483149 -0.5985095
000050 4f 4a 11 bf f0 b6 4b be e9 1d c1 be 08 9a da be
       -0.5675401 -0.19894004 -0.37718132 -0.42695642
000060 8d 62 08 bf 8e e0 b4 be 5b da 22 3f ee 79 fb 3e
       -0.53275377 -0.35327572 0.63614434 0.49116462
000070 cb 88 26 bf 26 57 d8 3e a5 5c 17 3f 58 b0 4c be
       -0.6505248 0.4225399 0.5912574 -0.19989145
000080 30 a0 59 be 8c 98 33 be e1 2c 05 3f 18 54 2b be
       -0.21252513 -0.17538661 0.52021605 -0.16731298
000090 58 db 59 be 89 5d 2f bf f6 1c 8b 3e 0a 93 f8 3e
       -0.21275079 -0.685021 0.27170533 0.48549682
0000a0 48 d2 6a be c7 0e 06 3f 60 39 07 3d 37 97 88 be
       -0.22931778 0.523663 0.0330137 -0.26677868
0000b0 99 c5 30 3f 04 83 34 be 18 63 43 3e 50 58 3a 3d
       0.6905151 -0.17628103 0.1908077 0.045494378
0000c0 42 ba a3 3e fe ff 89 be e5 42 f7 be d8 db ee 3d
       0.3197804 -0.2695312 -0.48293224 0.116630256
0000d0 f2 e3 ef be 9c b0 40 3e 8a 18 c1 3e 6c 20 c9 be
       -0.46853596 0.18817371 0.37714034 -0.39282548
0000e0 ba b9 0b bf 2e 60 23 bf 06 b2 16 bf da bc 2c bf
       -0.5458027 -0.63818634 -0.5886539 -0.67475665
0000f0 f5 fb 19 3f 5a 2f 16 bf 80 ca 24 3e 0a f5 ba 3e
       0.6015008 -0.58666 0.16092873 0.36515075
000100 b9 a6 1f 3f c9 95 db be 88 ff a6 bd 41 2c 84 be
       0.62363774 -0.42887715 -0.081542075 -0.25815013
000110 ab dd 2c 3f 6d 26 2c 3f e8 6a 6a 3e d0 cd 91 3e
       0.6752574 0.67246133 0.22892344 0.28477335
000120 68 19 2e 3e 32 05 d0 be 87 fd 1a 3f 61 19 1b 3f
       0.17001879 -0.40628964 0.605431 0.605856
000130 d3 cb 0b 3f a8 27 9f 3d 37 61 cc be 40 21 3e 3d
       0.54607886 0.07771236 -0.3991792 0.04641843
000140 ae 51 66 be bc 79 45 be 40 f5 74 3d 80 f7 96 bb
       -0.22492096 -0.19284719 0.0598042 -0.004607141
000150 fd 3a 1b 3f ec bc 09 bf 1d 9b 04 bf 28 8e 09 3e
       0.60636884 -0.53803897 -0.51799184 0.13433135
000160 eb 31 1c 3f 47 09 96 be f8 65 df 3d 0c f4 4a 3e
       0.6101367 -0.29303953 0.10908121 0.19819659
000170 5c 3d b8 be 8e 37 db 3e df 4d 28 bf 60 11 43 bd
       -0.35984313 0.42815822 -0.6574382 -0.047623992
000180 2b 04 24 3f 8a 0c b7 be ed 8e aa be 5e ef 58 be
       0.6406886 -0.35751754 -0.3331217 -0.21185061
000190 03 76 30 3f dc 91 ec be 50 bb 82 3d 79 e7 0c 3f
       0.6893007 -0.46205032 0.06383383 0.550407
0001a0 d9 48 25 3f cb 84 82 be 6b 2d 2e 3f 47 c2 b5 be
       0.6456428 -0.25491938 0.6803805 -0.35499784
0001b0 ac dd ef be 4c 87 1a bf 00 b5 33 3c 68 f4 4b be
       -0.4684881 -0.60362697 0.010968447 -0.19917452
0001c0 dc 89 a3 be a6 01 f2 be 85 bc 02 3f e0 18 6e bd
       -0.31941116 -0.47266883 0.5106891 -0.05812919
0001d0 5c 8e 5a 3e c0 9a 2f 3c 12 1b 84 be 47 d6 1d 3f
       0.21343368 0.010718048 -0.25801903 0.61655086
0001e0 b8 16 ec 3d 70 c9 b2 3d d0 91 d2 3d 8a 35 d1 be
       0.11527771 0.087298274 0.10281718 -0.4086116
0001f0 c0 2e 60 be d0 6d 87 bd 8c 44 cc be 90 74 6f be
       -0.21892834 -0.06612742 -0.39896047 -0.23384309
000200 aa 2e a4 3e 7e 84 bc 3e 84 c1 bd be 90 46 38 3d
       0.32066852 0.36819834 -0.37061703 0.04498917
000210 80 79 79 3d 60 81 73 3d 21 6c cd be fe 07 d3 3e
       0.060906887 0.059449553 -0.40121558 0.41217035
000220 e0 e2 7d 3d da 7e ad 3e c0 6c 2d bd 93 48 24 3f
       0.061983943 0.33885843 -0.04234004 0.6417324
000230 c5 4a b0 be 10 2c e3 be 31 fa 22 3f 8c d0 1b bf
       -0.34432045 -0.44369555 0.6366301 -0.6086509
000240 0b 5d 2a 3f 2b 08 31 bf a0 aa c5 be 49 79 19 3f
       0.6654822 -0.6915309 -0.3860674 0.5995069
000250 98 23 0c be 9f 4f 1e 3f be e2 bf 3e b9 73 1c 3f
       -0.13685453 0.6184024 0.37477678 0.6111408
000260 48 0a 0b be 32 d1 9b be 00 22 1c 3e ac 55 3e be
       -0.1357814 -0.3043304 0.15247345 -0.18587369
000270 02 32 25 bf f1 03 00 bf d4 8c 14 be 06 ae c0 3e
       -0.6452943 -0.50006014 -0.14506847 0.3763277
000280 98 49 19 bf 80 d9 60 3e 36 56 65 be 42 9b dc be
       -0.5987792 0.2195797 -0.22396168 -0.43087202
000290 81 fa 2c 3f ba f2 d5 3e 03 13 15 bf d0 a1 ed 3d
       0.6756974 0.41786748 -0.58232135 0.11603129
0002a0 8f b7 9c be 40 5e 28 be 98 4b d9 3d 9a 33 e6 3e
       -0.30608794 -0.16442204 0.106101215 0.44961244
0002b0 cf f9 a6 be 70 4a 04 bd bd bb 1a 3f b0 fa e6 be
       -0.32612464 -0.03229755 0.60442716 -0.45113134
0002c0 5a b6 fd be ee 57 fc 3e 6e bb 95 3e 58 f4 89 3d
       -0.49553186 0.49285835 0.2924456 0.06736058
0002d0 de 19 80 3e 28 69 29 3e 9c 21 08 3e 3d e7 8a be
       0.25019735 0.1654402 0.13294071 -0.27129546
0002e0 e5 c9 ef be 2f 38 ce be 88 32 3a be a6 ac a1 3e
       -0.4683372 -0.4027724 -0.18183339 0.31577033
0002f0 a5 ed 84 be 60 e0 4f be 6e a6 fe be 9e 64 df be
       -0.25962558 -0.20300436 -0.4973635 -0.43631452
000300 58 89 f4 bd 6a 82 da 3e c0 3a 1c be ac d4 50 be
       -0.11940259 0.42677623 -0.15256786 -0.20393628
000310 4e 1a a7 3e b0 04 fa 3d 60 6c 6f 3d 4c cb 42 be
       0.32637256 0.12207925 0.058452964 -0.19022864
000320 c0 36 86 3d ef ab 00 bf e1 d1 2e 3f c4 49 f1 be
       0.065534115 -0.5026235 0.68289 -0.4712659
000330 8b 4c c8 be 6c e2 34 bf 16 b5 80 3e ee fe 6c be
       -0.39120898 -0.7065799 0.25138158 -0.23144123
000340 ba 09 fb 3e 97 76 f3 be 4c ec 4d be a8 d3 3c be
       0.49030858 -0.47551414 -0.20109671 -0.18440115
000350 f9 34 be be 56 58 dd 3e ee a5 a9 3e 0d a4 06 3f
       -0.3714979 0.43231457 0.33134407 0.5259407
000360 20 03 c2 be 7a 1e ba 3e a0 d0 de be 50 53 05 bd
       -0.3789301 0.36351377 -0.43518543 -0.032550156
000370 1b bd 08 bf d0 8b 2f be 5a bc ba be d8 37 30 be
       -0.5341355 -0.17143178 -0.36471826 -0.17208803
000380 00 74 fb ba 8f 13 25 3f 60 f0 1a bd 57 c7 03 3f
       -0.0019184351 0.6448297 -0.037826896 0.51476043
000390 f1 78 12 3f 76 ff df 3e b6 fc c9 3e be bd b5 3e
       0.5721579 0.4374959 0.39450616 0.35496324
0003a0 c4 c5 2c be 1a 70 db 3e 04 e3 6a 3e b5 6e 00 bf
       -0.16872317 0.42858964 0.22938162 -0.50168926
0003b0 40 de 04 bc d0 fb 29 3e 48 e3 f3 3d a6 3b e2 3e
       -0.008109629 0.16599965 0.11908585 0.44186133
0003c0 20 8f 14 3e 4b f1 ae be 2a d7 fe be 49 94 19 3f
       0.14507723 -0.34168467 -0.49773532 0.5999189
0003d0 5f 27 09 bf 08 77 d8 3d 0d 8a a0 be 70 48 6e bd
       -0.535757 0.105695784 -0.31355324 -0.05817455
0003e0 e0 5f 6d bd 25 47 1d bf a8 17 05 bf 8a a0 df 3e
       -0.05795276 -0.6143668 -0.5198922 0.4367717
0003f0 df f2 0d 3f 0a 26 c0 3e ac a8 06 be f0 9e 07 bf
       0.55448717 0.37529022 -0.1315028 -0.52976894

edge_encoder.0.bias f4 [128]
000000 d4 07 7f be 8c 78 40 be 40 f7 ab 3c c6 4b d1 3e
       -0.2490533 -0.18795985 0.020991921 0.40878123
000010 5c 35 1f bf 3f 39 0b 3f 65 a3 13 3f 68 30 3f 3e
       -0.62190795 0.54384226 0.57671195 0.1867081
000020 d4 84 2f be 58 3e 8c 3d 2a 3b 18 bf d0 22 d1 bd
       -0.17140514 0.068478286 -0.5946528 -0.10211718
000030 28 9d e9 3d 41 74 2d 3f 7e 35 c8 3e 17 a2 33 3f
       0.11406928 0.67755514 0.3910331 0.70169204
000040 f0 1b a0 3d 3a af e6 3e d0 d0 5d 3e 4b bf 0a 3f
       0.07817829 0.45055562 0.21661687 0.5419814
000050 47 08 b0 be f0 36 0c bf a2 fe a9 3e 92 4f f9 3e
       -0.34381315 -0.5477133 0.33202082 0.4869352
000060 34 8c 46 be f0 c4 5b bd a0 85 91 bd 59 f4 2e 3f
       -0.19389421 -0.05365461 -0.07105565 0.68341595
000070 65 fc a4 be 4f 30 1d bf 06 65 bf 3e 42 69 8b 3e
       -0.32223812 -0.6140184 0.37381762 0.27228743
000080 2e a2 a5 3e a7 c1 b6 be 62 d4 b6 3e da f5 aa 3e
       0.32350296 -0.3569462 0.3570891 0.33390695
000090 9c e1 ca be 51 b6 12 3f c0 2d 81 bd a7 36 1b 3f
       -0.3962525 0.5730944 -0.06307554 0.6063027
0000a0 74 70 ac be a8 fc bb bd 00 55 7b bd 08 5d 16 bf
       -0.33679545 -0.0917905 -0.06136036 -0.58735704
0000b0 9b 25 23 3f 35 d5 1f 3f 16 2a a3 3e 15 4a 8d be
       0.63729256 0.62434703 0.31868047 -0.27595583
0000c0 b0 a1 c8 3d 50 56 b6 3d cc b0 00 3e aa 0c a7 3e
       0.097964644 0.089031816 0.12567443 0.3262685
0000d0 5f a8 1e 3f ce d9 a7 3e cb 6d 1f bf 9c 39 0b bf
       0.61975664 0.3278336 -0.62276906 -0.5438478
0000e0 a2 28 cb 3e 75 1a c9 be 84 87 c7 be 93 82 21 3f
       0.39679438 -0.39277998 -0.38970578 0.63089865
0000f0 6a a5 1f bf 10 fd 24 be b8 f4 99 bd fa f6 b2 3e
       -0.62361777 -0.1611216 -0.075173795 0.34954053
000100 de 5b b4 3e 2c 1d 6c 3e 80 fa 13 3c 39 17 0d 3f
       0.3522634 0.23058003 0.009031892 0.5511356
000110 64 4e 8f 3e 0a b9 8b be 90 d9 6e 3e f9 2b 24 3f
       0.27989495 -0.2728961 0.23325181 0.64129597
000120 a0 9d 8f bc e8 3b 01 be 64 8d 40 3e 40 fe 1c bd
       -0.017531216 -0.12620509 0.18803936 -0.03832841
000130 06 6a 11 bf ee 90 f5 be 58 f2 44 be 5e 9d c3 3e
       -0.56802404 -0.47962135 -0.19233072 0.38206
000140 68 1f a5 bd e4 56 09 3e ac 36 62 be d8 4f 0b bf
       -0.08062631 0.13412052 -0.22091168 -0.54418707
000150 a6 d0 8d 3e 8f 7b 10 3f 98 be f6 bd da 83 85 be
       0.2769825 0.56438535 -0.120480716 -0.26077157
000160 92 b4 0f bf ec 00 fe be 1d 3a dd be 6c d9 2e 3e
       -0.56134903 -0.49610078 -0.432084 0.17075127
000170 22 a5 ed 3e 9a a4 82 be 84 eb de be 80 08 14 be
       0.4641505 -0.25516206 -0.4353906 -0.14456367
000180 6e 12 fb 3e 36 1b cb 3e 90 e5 e0 3d 38 49 bd be
       0.49037498 0.39669198 0.109812856 -0.36969924
000190 12 31 e6 3e e0 31 e0 bd d8 ce 76 be aa f5 da 3e
       0.44959313 -0.10947013 -0.24102342 0.42765552
0001a0 5a ee ea 3e 58 a2 37 3e bc 8b fe be cc 44 ec be
       0.45884973 0.17933023 -0.49715984 -0.46146238
0001b0 00 20 55 3a 64 12 49 3e 20 96 7e bd 40 1c d5 be
       0.00081300735 0.19635922 -0.06215489 -0.41623116
0001c0 93 08 23 bf f0 54 f5 be 16 7b c7 be 2c e3 76 3e
       -0.6368496 -0.47916365 -0.38961095 0.24110097
0001d0 2d 2e 11 3f d4 b7 30 bf c6 66 cb 3e de 5d cf 3e
       0.56711084 -0.690305 0.39726847 0.40501302
0001e0 70 27 0d 3e 5f 25 33 3f e8 36 b8 be 1e 81 8f 3e
       0.13784575 0.699789 -0.3597939 0.28028196
0001f0 38 43 94 3e 80 cb 15 bc be fa cb be 90 27 22 bd
       0.28957534 -0.009142756 -0.3983974 -0.03958851

edge_encoder.2.weight f4 [128, 128]
000000 bc 0c 34 bd 60 df 8d bd ff f0 b0 3d 90 02 c8 bb
       -0.043957457 -0.06927371 0.08639716 -0.006103821
000010 29 bd 16 bd c4 33 f6 bc 91 ee 12 bd 88 6e ad bd
       -0.03680149 -0.03005398 -0.035872046 -0.08468348
000020 36 46 97 bd ac 33 8c bd 43 fd 9f 3d 7c bf e8 3c
       -0.073864385 -0.06845793 0.07811978 0.02841162
000030 98 70 6c bc 06 81 4d 3d 62 ec 89 bd 99 85 9a 3d
       -0.014431141 0.050171874 -0.067345396 0.07545013
000040 90 ea 52 bd 88 bb 32 bd 83 5c ae bd 92 04 1f 3d
       -0.051493227 -0.043635875 -0.08513739 0.038822718
000050 2a fd 01 bd 04 8a 8a bd 5b 58 b1 bd 0e 02 f4 bc
       -0.031735577 -0.06764606 -0.086594306 -0.029786136
000060 78 38 89 bc 7a 2c 6c 3d f0 7d 14 3d d6 6d 00 bd
       -0.01675056 0.057659604 0.036252916 -0.031354748
000070 80 be be bb 90 1b 84 3b 0c eb e0 3c 01 2e 9c 3d
       -0.005821049 0.004031606 0.02745583 0.07625962
000080 79 8f a5 3d 80 dd 4f bc 24 89 d6 3c fb e3 88 bd
       0.08084006 -0.012687087 0.02618844 -0.06684109
000090 50 b9 3e bc ab 32 8a 3d e6 d8 a4 bd 96 d9 6e 3d
       -0.011640862 0.067479454 -0.080491826 0.058312975
0000a0 60 99 02 bb cb 25 b3 3d 40 43 e4 ba fe 8d 7e 3d
       -0.0019927844 0.08747443 -0.0017415062 0.062147133
0000b0 4e 8a 38 3d 00 3c 59 b9 1f a6 9a 3d 88 64 4e 3c
       0.045053773 -0.00020717084 0.07551216 0.012597211
0000c0 48 1d f0 bc 1a 73 5d 3d 86 bc d8 bc 9d cd 9f bd
       -0.029310837 0.054064848 -0.026457082 -0.078028895
0000d0 e1 d1 4c bd 58 ec a1 bc 36 b4 44 bd 38 50 cd bc
       -0.050004844 -0.019766018 -0.048023425 -0.025062665
0000e0 94 26 a9 bc 91 30 80 3d 13 6d 50 bd 35 bb 9d 3d
       -0.020648278 0.06259263 -0.05088527 0.077017225
0000f0 0b 78 a0 bd 48 cc 3b 3c 5e 27 75 3d 0f 0d 82 3d
       -0.078353964 0.011462279 0.059851997 0.06350147
000100 56 46 8d bd 7b e1 af bd 34 3f f2 3c 66 48 33 bd
       -0.06898181 -0.08587929 0.029571153 -0.043770216
000110 ff 9e a8 bd 05 fc 9d 3d 6e b6 72 3d 2d d2 35 bd
       -0.08233451 0.077140845 0.05925601 -0.044389892
000120 40 1f 8a bd be f5 5a 3d 94 dd a3 bc 51 d9 86 bd
       -0.06744242 0.053457014 -0.020003118 -0.065844186
000130 1c 0f cc bc 11 1c 3f bd 4f fd a9 3d 38 92 26 3c
       -0.024909548 -0.046657626 0.08300268 0.010166697
000140 e8 8b c9 3c 47 23 0f bd 38 af 8c bd 09 df 8d 3d
       0.024602845 -0.034945752 -0.06869358 0.06927306
000150 d4 b9 e2 3c 32 c3 1f 3d be 1f 9b bd b1 c2 99 3d
       0.0276765 0.039004512 -0.07574414 0.075078376
000160 60 75 b6 bb 5c c1 87 bd d1 24 7e bd 71 99 a0 bd
       -0.0055681914 -0.06628677 -0.06204683 -0.078417666
000170 16 3a 6a 3d 75 bb 86 3d 88 49 98 bc f0 9c 3a bc
       0.0571843 0.06578723 -0.01858975 -0.011389956
000180 38 43 ec bc 82 71 73 bd 55 7d ad bd dd 25 0f bd
       -0.028840646 -0.05943442 -0.08471171 -0.03494822
000190 0e db 51 bd b3 c7 89 3d 74 c7 a6 bc b8 aa 51 bd
       -0.051234297 0.06727543 -0.020358779 -0.0511882
0001a0 cf 90 98 3d b1 d6 14 bd bf c3 05 bd c4 7e 62 bd
       0.07449495 -0.03633756 -0.03265738 -0.055296674
0001b0 00 47 cd 3a 26 f7 8a bd 87 4a 9e bd 50 5b ab bd
       0.0015661418 -0.06785421 -0.07729059 -0.08367026
0001c0 68 58 1c 3c c1 71 a4 3d 9f 32 2f bd 9c ab da 3c
       0.009542562 0.08029509 -0.042772885 0.026693158
0001d0 4a 5a 50 bd b8 b5 9d bd 5a 35 5c 3d d0 6d a3 bc
       -0.050867356 -0.07700676 0.053761818 -0.019949824
0001e0 29 db 8f bd 46 3e 2c bd 40 e5 63 bb 82 4a 7a 3d
       -0.07024223 -0.042051576 -0.0034774095 0.061106212
0001f0 f9 c8 91 3d 08 4a 2e bc 6a c4 72 3d 65 b6 93 3d
       0.071184106 -0.010637768 0.059269346 0.07212523
000200 8d bf 88 3d 6c 78 67 bd 06 2d 78 bd d4 f0 00 3d
       0.066771604 -0.056511328 -0.060589813 0.03147967
000210 00 5e 28 39 90 f5 41 bc a4 0a 3b bd 3e e5 75 3d
       0.00016056746 -0.011838332 -0.045664445 0.060033076
000220 a7 05 4f bd 40 6d 76 3b ed 38 b3 bd 52 09 2b bd
       -0.0505425 0.003760174 -0.08751092 -0.041756935
000230 83 f0 12 bd 67 f0 7d bd 22 0a 41 3d 74 f7 98 bd
       -0.0358739 -0.061996844 0.047128804 -0.07469073
000240 10 eb 7c 3c dc ea 9e bd 76 f4 3c 3d 20 4f ae 3c
       0.015436903 -0.077596396 0.046131574 0.021277964
000250 41 c5 8a bd e8 f4 27 bc 0e 8a 7c 3d a1 b9 a9 bd
       -0.067759044 -0.010251261 0.061655097 -0.08287359
000260 00 2d a4 3b 05 d2 93 3d fc 8f f4 bc ca 39 4c 3d
       0.005010247 0.072177924 -0.029853813 0.0498598
000270 bc 38 fe bc ef 69 8c 3d 62 09 5c bd 98 6c aa bc
       -0.031032912 0.06856143 -0.053719886 -0.020803735
000280 ac ba 03 bd ca 16 2c 3d 00 ba a3 b9 0a d6 90 bd
       -0.032160446 0.04201392 -0.00031228364 -0.07072075
000290 03 cb 9c 3d 16 66 2e 3d a1 5d 15 bd 47 4b 6d bd
       0.07655909 0.042577825 -0.036466245 -0.05793312
0002a0 8b f5 72 bd 2f 72 3e bd d1 c7 93 3d 40 f6 5a 3b
       -0.0593162 -0.046495613 0.07215846 0.0033410937
0002b0 d7 39 95 bd f8 0e 08 3c f5 30 99 3d eb 72 ae bd
       -0.07286423 0.00830435 0.07480041 -0.085180126
0002c0 06 72 42 3d e0 50 47 3c f7 86 a8 bd 00 d4 f4 3c
       0.047472022 0.012165278 -0.082288675 0.029886246
0002d0 12 45 46 3d 10 29 8d 3c 17 b0 9d bd 20 e4 5f 3b
       0.048405714 0.017231494 -0.07699602 0.0034163073
0002e0 70 ac a7 bd c8 a2 34 bd 14 d7 c1 bc aa 0f 20 3d
       -0.08187187 -0.044100553 -0.023662128 0.03907744
0002f0 0c fc 84 3c ff 5f 9d 3d 04 49 93 bc aa dc 17 3d
       0.016233467 0.076843254 -0.017979153 0.037075676
000300 f8 ae c5 bc 30 4a c7 bb 92 69 51 3d d5 27 87 3d
       -0.024131283 -0.006081842 0.05112607 0.06599394
000310 bf d8 b4 3d a0 58 98 bb 4f 7e b3 3d 45 10 a3 3d
       0.088304035 -0.004649237 0.08764326 0.079620875
000320 2c e7 91 bc 3a 6d 67 3d 3c 0a 9a bd bb 8c 85 3d
       -0.017810427 0.05650065 -0.07521483 0.06520983
000330 36 af 33 3d 84 ef 95 bd c1 6a ad 3d 00 e7 e6 b9
       0.043868266 -0.073210746 0.08467627 -0.00044041127
000340 ea f2 16 3d 56 4f 69 3d ba e3 b4 bd 07 80 87 3d
       0.036852755 0.056960426 -0.08832498 0.06616216
000350 19 f4 26 bd c0 fc fc 3c 1c 3b a5 3c b8 a8 ac 3c
       -0.040760133 0.03088224 0.020169787 0.021076545
000360 23 b7 90 bd 6c 8d 50 bd 88 c8 ab 3c 5a 7a 70 bd
       -0.070661806 -0.05091612 0.020969644 -0.058710434
000370 b0 31 13 3c af d3 a7 3d d2 65 7b 3d c6 05 07 3d
       0.008984014 0.08194672 0.0613764 0.03296449
000380 40 63 ac ba 11 91 55 bd be 8b 7b 3d 10 81 7f 3c
       -0.0013152137 -0.0521403 0.061412565 0.015594736
000390 20 1e 3a 3b 62 e7 1a 3d 6e df 7f 3d 39 9d 2c bd
       0.0028399304 0.03781832 0.06246894 -0.042142127
0003a0 d9 8a 8c bd c0 6f 08 bc 85 2a 85 3d 86 a5 7d bd
       -0.068624206 -0.0083274245 0.065022506 -0.061925434
0003b0 04 df 85 bd 8a 20 3d 3d 7e 57 25 3d 03 e1 59 bd
       -0.065366775 0.04617361 0.040366642 -0.053193104
0003c0 6e 89 1a bd 12 38 4b 3d ae 79 3d 3d 18 b8 b1 bd
       -0.03772872 0.04961402 0.04625862 -0.08677691
0003d0 d9 ae 38 bd ac 81 a0 3c 0e 3e a2 bd 90 05 15 3c
       -0.045088623 0.019593082 -0.07921992 0.0090955645
0003e0 08 8d 3b bc 59 dc 8b 3d ac 06 86 bc da 89 33 bd
       -0.011447199 0.06829137 -0.016360603 -0.043832637
0003f0 4e 54 7c bd 84 ae 80 3c fc 32 85 bc f1 09 97 bd
       -0.061603837 0.015708216 -0.016259663 -0.07374943

edge_encoder.2.bias f4 [128]
000000 74 b6 2d bd a8 8b 58 bc fb c5 a7 3d 5d a9 a1 bd
       -0.04241033 -0.01321689 0.08192059 -0.078936316
000010 a7 f4 89 3d ef 50 a9 3d 9e b9 a1 bd 6e bd 43 3d
       0.06736117 0.0826739 -0.07896732 0.047788076
000020 3b a7 39 bd 0a 95 71 bd 66 59 8b bd 50 07 03 bd
       -0.0453255 -0.058980025 -0.06804161 -0.031989396
000030 d8 1f 4c bc d7 3d 93 3d 80 34 7d 3a da 0b 19 3d
       -0.012458764 0.071895294 0.0009659007 0.03736482
000040 48 1b 99 bc 34 c9 c0 bc 40 29 e9 3b 13 d1 5a bd
       -0.018689767 -0.023533441 0.007115513 -0.053422045
000050 bc 4f 81 bc c4 e5 a8 bd 57 90 04 bd b3 3d b2 3d
       -0.01578509 -0.08246949 -0.032364216 0.087031744
000060 61 db 8a 3d 58 4d b4 bd c9 3c b0 3d d6 bf 39 bd
       0.067801245 -0.08803815 0.08605344 -0.045348965
000070 1d 3f aa 3d a9 a4 0e bd e4 67 c9 bc d4 8d cc bc
       0.08312819 -0.034825 -0.024585672 -0.024969973
000080 f5 ea 92 3d 81 38 a8 3d c2 05 4e 3d 25 24 a9 3d
       0.07173721 0.08213902 0.05029846 0.08258847
000090 2e af 80 bd ca 74 29 bd 77 26 43 bd 58 55 07 3c
       -0.06283413 -0.041371144 -0.047644105 0.008260094
0000a0 81 ea 2d bd b8 ac 14 bd 40 05 ad 3a ad b5 a3 3d
       -0.04245997 -0.03629753 0.0013200417 0.07993636
0000b0 e4 52 d5 3c 81 db 8d 3d 20 f7 e6 bb 4a 6e 6a 3d
       0.026040502 0.06926633 -0.0070485026 0.057234086
0000c0 0c 35 83 bd 5e d7 12 3d 35 d8 8c bd b5 77 42 bd
       -0.06406602 0.03584992 -0.06877176 -0.047477443
0000d0 78 96 11 3d d4 18 3d bd fe 93 1f 3d 00 c8 9b 3c
       0.03554389 -0.046166256 0.038959496 0.019016266
0000e0 d8 02 8f bd ec fc 9c bc c3 e5 8c 3d 83 50 00 bd
       -0.06982964 -0.019163571 0.06879761 -0.031326782
0000f0 48 28 6e 3c 1c 5b 65 bd b7 14 40 bd 9b d0 82 3d
       0.014535971 -0.05599509 -0.046894755 0.063874446
000100 d4 3b 96 3c 9a 13 8b bd 78 08 7b bc 50 c9 10 bc
       0.018339075 -0.06790848 -0.015321843 -0.008837059
000110 00 c8 4e bd 08 9a 66 bc 68 e9 23 bd e0 f4 bd 3c
       -0.050483704 -0.01407481 -0.040017515 0.023188055
000120 46 69 51 3d fa e6 49 3d eb 12 9e bd 3d b2 a9 bd
       0.051125787 0.049292542 -0.07718452 -0.082859494
000130 00 6b 15 bc c4 56 b6 3c d2 34 34 3d d8 05 88 3c
       -0.009119749 0.02225817 0.043995686 0.016604349
000140 57 76 0b bd d9 b0 ae bd a0 0d 4e 3c ea bf 20 3d
       -0.034048405 -0.08529825 0.012576491 0.039245524
000150 1a a7 54 3d ac b6 f8 3c 20 db aa bb 42 d6 7e 3d
       0.051917173 0.030360542 -0.00521411 0.06221605
000160 e8 85 7f 3c a8 f0 a9 bc a0 fb fa 3c a6 95 ef bc
       0.015595891 -0.020744637 0.030637562 -0.029246163
000170 34 71 0f bd 28 f9 94 3c 28 74 6a bc 01 46 ac 3d
       -0.03502007 0.018185213 -0.01430992 0.0841179
000180 8d c0 7f bd 90 ec f4 bb 5a fd 5c 3d 6c e6 a1 bd
       -0.06243949 -0.0074744895 0.053952552 -0.079052776
000190 fb 05 1d bd 00 94 5d ba 78 f9 99 3c 52 3e 46 3d
       -0.03833578 -0.00084525347 0.018795714 0.048399277
0001a0 3a 87 92 bd 43 55 9d 3d 4e dd 0e 3d d4 1f 0d 3d
       -0.07154699 0.07682278 0.03487902 0.03445418
0001b0 7a f9 78 bd 70 df 5e bc 19 c5 9e bd 79 57 a2 bd
       -0.060784794 -0.013603076 -0.07752437 -0.0792684
0001c0 95 2e 37 bd b0 12 78 bc 4c 92 67 bd 07 ff 83 3d
       -0.04472216 -0.015141174 -0.056536004 0.06445127
0001d0 50 41 84 bc 8a 83 56 3d 00 0a 54 bd cd 47 83 3d
       -0.016144425 0.05237154 -0.05176735 0.06410179
0001e0 18 35 b6 3c fc 42 d2 bc 9e 6c b1 bd 60 cc cf bc
       0.022242114 -0.025666706 -0.08663295 -0.025366008
0001f0 9d 0b 85 3d 0a 93 24 3d c0 1e 78 bc ac 27 9f 3c
       0.06496356 0.04017929 -0.01514405 0.019428097

gat1.linear.weight f4 [128, 128]
000000 32 6d b2 3c b7 3f e4 bd d9 b3 51 bd e2 35 18 bc
       0.021780584 -0.11144965 -0.051196907 -0.00929019
000010 58 6d e7 3c e3 d1 f7 3d 82 00 23 bd fe 8f de bc
       0.028250381 0.121005796 -0.039795406 -0.02716827
000020 c6 73 00 bd 2a 06 5f bc 77 04 22 3d aa 17 4a 3d
       -0.03136041 -0.0136123095 0.03955504 0.049338974
000030 b0 16 a1 3d 9f d4 16 be 40 af fb 3c b9 ee 34 3d
       0.078656554 -0.14729546 0.030723214 0.044172976
000040 ca da 33 3d cf 1c 34 3d d8 4b 72 3d 25 61 3d bd
       0.043909825 0.043972787 0.05915436 -0.046235222
000050 a1 f1 f4 bc 24 2f d3 3d ea 5b 39 bc d1 50 88 3d
       -0.029900374 0.10311726 -0.011313418 0.066560395
000060 3b 18 9b 3d d1 8d 34 3d 04 25 60 bc 8a 8c fb bc
       0.07572981 0.04408056 -0.0136807 -0.030706663
000070 95 fd 3c bc 23 11 28 3e 72 89 8f bd 48 89 1b bd
       -0.011535068 0.16412787 -0.070086375 -0.03797272
000080 18 5d 29 3d 04 b3 1f be 4e b3 83 3c 26 44 6a bd
       0.041348547 -0.15595633 0.01607671 -0.057193898
000090 cd 17 a4 3c fe e8 bf 3d c3 96 aa 3c 8a 04 35 3b
       0.02003088 0.093706116 0.020823842 0.0027621114
0000a0 93 df 4f bc 90 25 f2 3c 2f 2a 4a bd 3c d3 86 bc
       -0.012687582 0.029558927 -0.049356636 -0.016458146
0000b0 de d1 8e 3d ce 06 b2 3d 04 c4 2c bd 1e 8c cd bc
       0.06973623 0.08692704 -0.042179123 -0.025091227
0000c0 56 d4 2f 3c e3 69 ca 3d 9e f8 2f be ec b3 13 3e
       0.010731777 0.098834775 -0.17184684 0.14424103
0000d0 13 7a b7 bc 95 75 93 bd fd 19 39 3c ea 75 9c bc
       -0.022397077 -0.07200161 0.0112977 -0.019099195
0000e0 c8 bb d4 3d 86 c6 8b 3d 15 4a c8 bd e7 83 92 3d
       0.10387379 0.06824975 -0.09779755 0.071540646
0000f0 9a 43 8d 3d ea 98 be bc 00 16 92 bd 18 76 ed 3c
       0.068976596 -0.023266274 -0.071331024 0.028986976
000100 1c d7 9a bd 90 c5 79 bc 78 05 35 3d c1 d3 52 bd
       -0.0756056 -0.0152448565 0.04419467 -0.051471476
000110 23 ec c8 bc b3 8d 3d 3d e0 a1 b8 bc 9f c6 f7 bd
       -0.024526661 0.046277713 -0.022538126 -0.12098431
000120 c2 ad a7 3d 1c a4 ed 3d cd 59 ad 3d 65 e7 8c bd
       0.081874385 0.11603567 0.08464394 -0.068800725
000130 af 95 02 bd 42 6a c8 ba de 2b c4 bd 6c 49 1b be
       -0.03188103 -0.0015290456 -0.095786795 -0.15164727
000140 52 1c e6 3d c7 d7 66 bc fe 24 3f bd 03 4d 98 bd
       0.112358704 -0.014089531 -0.046666138 -0.07436564
000150 70 7b de bc 42 ac 9a 3d 2c 65 e9 3d 28 f1 72 bd
       -0.027158469 0.07552387 0.1139625 -0.059312016
000160 f6 6b 6b bd df 5c 0f 3a 2d bc 95 3d 50 25 e6 3d
       -0.057476006 0.0005468856 0.07311282 0.112375855
000170 78 ed 2c bc ab d1 84 3d 42 69 8b 3d f9 49 95 bb
       -0.010554664 0.064853035 0.06807186 -0.0045559374
000180 5c a5 12 3c 0e b9 6d 3b 0b 26 e3 bd 53 37 19 be
       0.008950558 0.0036273631 -0.110912405 -0.14962511
000190 50 39 71 bd d2 f4 5e bd 84 a3 42 be 18 9e ee 3d
       -0.058892548 -0.054432698 -0.19007689 0.11651248
0001a0 23 bc ca 3c 10 90 00 3e 71 46 a5 3d d1 d6 e6 bc
       0.024747914 0.12554955 0.08070076 -0.028178604
0001b0 12 e2 f6 3d 4b 18 07 3e 65 a0 7a bd 2b e6 90 3d
       0.12054838 0.13192861 -0.06118812 0.07075151
0001c0 7c 53 3a 3d db 4b 92 bd 90 7e b6 3c 3b 63 94 3c
       0.045489773 -0.071433745 0.022277147 0.018113723
0001d0 1e ff 05 3d 2f 99 b3 3c e7 e4 e5 bd 51 2a 25 3b
       0.032714 0.02192363 -0.112253 0.0025202224
0001e0 d7 11 7f 3d 7f 68 3d bc a9 72 38 3a 42 00 8c bd
       0.062272873 -0.011560558 0.00070361287 -0.06835987
0001f0 06 10 bb bc b5 f4 88 3c 8f fd 15 be e0 a0 c0 bc
       -0.022834789 0.016718248 -0.14647506 -0.023514211
000200 19 84 9c bd 0b bd f5 bd c3 94 0d be 5d 41 35 3c
       -0.07642383 -0.11998948 -0.1382628 0.011062947
000210 21 b3 43 bc e4 e5 c3 3d 3f 7b c6 bd 50 94 94 bd
       -0.011944563 0.095653325 -0.09691476 -0.07254851
000220 29 1b 81 bd 97 89 36 bd 52 f7 b5 bd 5e 9c 3b 3c
       -0.063040085 -0.04456481 -0.08885063 0.011450855
000230 3c cb a7 bb 80 da 0e be bd 21 94 3d bb 24 f9 bc
       -0.005120663 -0.13950539 0.072329976 -0.030413022
000240 22 ec a7 39 16 fd 14 bd 32 ae 19 bc d6 e2 0c 3e
       0.00032028655 -0.036374174 -0.00937991 0.13758406
000250 c5 50 ce 3d 6d ea 20 bd 36 8c 98 bc b6 b4 e0 3d
       0.10073999 -0.039286066 -0.018621545 0.10971968
000260 8f 80 93 3d 95 27 84 3d 8f 8f 0e 3d 4f 50 54 bd
       0.07202255 0.06452862 0.034804877 -0.0518344
000270 7f d8 2f 3d be ae cb 3c 20 77 28 bd 8f 99 b0 3b
       0.042931076 0.024863597 -0.04112923 0.0053893994
000280 df 10 75 bd 98 18 42 bd 31 f9 00 bb 77 75 f9 bb
       -0.059830543 -0.047386736 -0.001967978 -0.00761288
000290 bb b7 13 3d 46 d7 1f 3e b4 d5 87 3d 0d 13 99 bd
       0.03606389 0.15609464 0.066325575 -0.07474337
0002a0 12 51 a4 3c 50 af cc 3c 8a 21 0e 3c b5 f4 65 bd
       0.020058189 0.02498594 0.0086749885 -0.056141574
0002b0 74 7d c7 bc 4a 26 0c be df c4 7e bd 09 2f 55 3d
       -0.024351813 -0.13686481 -0.06219947 0.05204681
0002c0 bb 27 39 3b 04 1a f3 3c f0 47 4b bc 11 0f 0a 3e
       0.002825244 0.029675491 -0.012407288 0.1348231
0002d0 6b 4b 94 bd 8d 3f 5e bd 83 00 e4 bd cb 8a d5 3d
       -0.07240947 -0.054259825 -0.1113291 0.10426863
0002e0 4d 41 f7 3c 7f be 02 3c 89 d7 85 bc 6c ef 3e bd
       0.030182505 0.007979988 -0.016338127 -0.04661505
0002f0 c8 ad 6a bd d2 52 7c 3d f2 5c 5a be 0f 44 5e 3d
       -0.057294637 0.06160242 -0.21324518 0.054264124
000300 88 c6 f1 3d 0c 79 4b bc 78 8c 5b 3d 5b ea ad bd
       0.11805445 -0.012418997 0.05360076 -0.084919654
000310 6a 71 13 bd ba c7 c5 bc c0 d1 0b 3c ea 2e 00 be
       -0.035996832 -0.024143089 0.008533895 -0.12517896
000320 f7 60 4c bb 3d c2 f2 3d 16 53 ce bd b0 d2 4d 3c
       -0.0031185725 0.11853454 -0.10074441 0.012562439
000330 30 01 7d 3d d3 f6 ea 3a 73 f4 70 bc 37 c8 71 bd
       0.06176871 0.0017926343 -0.014706719 -0.05902883
000340 40 64 4e 3d c5 0d 86 3d ca ae 02 bd eb 5a de bc
       0.050388575 0.06545595 -0.031904973 -0.027142962
000350 71 e9 f2 3c 15 19 ab bc f5 ca d4 3d fa d5 62 bd
       0.02965233 -0.020885983 0.103902735 -0.055379845
000360 2f a8 73 bd 49 7b 27 3c 18 c2 8f 3d d6 0b 28 bd
       -0.059486564 0.010222265 0.07019442 -0.041026913
000370 f6 ed c9 bc 2d 31 da bc 5b f5 0d bc 3a 40 2f bc
       -0.024649601 -0.026634777 -0.008664454 -0.010696465
000380 63 47 96 bd 02 5b 57 bd cc 91 a0 bd 12 76 a8 3c
       -0.07337835 -0.052577026 -0.078403085 0.020564113
000390 3f f4 ad 3d 4a b4 be bd b1 e6 cf bc 2b 6f b9 3d
       0.08493852 -0.09311731 -0.025378557 0.09054407
0003a0 b3 94 6a 3d 7e 43 0b 3e bf 42 54 bd 05 d4 2f 3d
       0.057270717 0.13599965 -0.051821467 0.042926807
0003b0 ea 6f 00 bd 4c 99 fa 3d 21 8a 1b bd 54 19 8f 3c
       -0.03135673 0.1223627 -0.037973527 0.017468132
0003c0 5e 79 9b bd 7d 42 d3 bb a2 b8 91 3d c5 74 70 bd
       -0.07591508 -0.006447135 0.07115294 -0.05870511
0003d0 4e 32 f1 bc 76 7c 30 3d c5 5a e5 bd b8 50 86 bc
       -0.029442932 0.043087445 -0.111989535 -0.016395912
0003e0 86 cb 31 3d cc af 3c 3d 5e 59 2e bd b9 79 30 3b
       0.043406986 0.04606609 -0.042565696 0.002692802
0003f0 60 75 f5 3d ff ff 80 3c 6b cf 5b bd ad 4b 25 bd
       0.11985278 0.015747068 -0.053664606 -0.040355373
