models/reroute_model_final.pth (torch, 480067 bytes, 21 tensors)

node_encoder.0.weight f4 [128, 5]
000000 4e 08 05 3e ab 9e d4 be 93 7d 89 3e 21 6d 42 3e
       0.12991449 -0.41527304 0.26853618 0.18986942
000010 6a da 58 be 7a 77 5a 3c 9a 80 5f 3d ee 26 2f 3e
       -0.21177068 0.0133341495 0.054566003 0.17104694
000020 8f db 9c 3e c8 43 7d be bc 7f 02 3e 7c fd da bc
       0.3063626 -0.24732888 0.1274404 -0.026732199
000030 a5 9b ba 3e d1 39 bd 3e f2 6c ca 3d 8f e5 b6 3c
       0.36446872 0.36958173 0.09884061 0.022326259
000040 3f a8 b3 be c2 c0 05 3c 4a 8b 8b 3e 5e ce ec bd
       -0.350893 0.008163633 0.27254707 -0.11562799
000050 39 e9 b6 be 94 1d cf be e4 a4 08 bc 97 2f bb be
       -0.3572481 -0.40452254 -0.008340094 -0.36559746
000060 55 99 37 be 13 f7 cb 3d 5d cf 9c bd 04 e7 5b bc
       -0.17929585 0.09959235 -0.07656739 -0.013421778
000070 83 17 aa 3e ab 1c a3 3e ac 18 c1 ba 62 48 cd bc
       0.33221063 0.3185781 -0.0014732084 -0.025058929
000080 12 08 ec 3d 5b 80 af be 12 cc 76 3e fd 6f 34 3e
       0.11524977 -0.34277615 0.24101284 0.17620845
000090 e5 70 8b bd e5 af c9 be d5 f7 9f 3d 2c 6e ab 3e
       -0.06808642 -0.3939201 0.07810942 0.33482492
0000a0 f5 4f 84 3e bc c6 a0 3d 44 84 84 be e8 03 b7 be
       0.25842252 0.078504056 -0.2588216 -0.35745168
0000b0 66 e1 89 3e 47 d6 84 bd 7e ee 30 3d c7 ee ed 3d
       0.26929778 -0.06486183 0.043196194 0.11617809
0000c0 78 8b c6 be fa 6f 9e 3e a0 92 91 3d ec 11 9d bc
       -0.3877828 0.30944806 0.071080446 -0.019173585
0000d0 e2 e6 6c 3e 61 46 e2 3e 18 8b a4 bd 9d 9f 24 bd
       0.2313495 0.4419432 -0.080343425 -0.04019128
0000e0 7d f0 04 be 0c 46 a7 3e 78 78 66 3e 85 3a 68 3e
       -0.12982364 0.3267063 0.22506893 0.22678573
0000f0 f6 b7 25 3a 4e 44 15 3e 22 6c 16 bd 41 26 b3 3d
       0.0006321663 0.14576837 -0.036724217 0.08747531
000100 c5 8f fc 3d d3 c8 0f be 95 53 40 bc a6 79 08 3f
       0.12332109 -0.14041452 -0.0117386775 0.5331062
000110 8d 69 1d 3e bf f2 92 3e 6e eb 33 be e2 fc 38 3e
       0.15372296 0.28700826 -0.17570278 0.18065217
000120 f6 46 83 3e 68 f2 cb be ee 08 9d be fe e6 7e 3e
       0.25640076 -0.3983338 -0.30670875 0.24892804
000130 fe 21 4e 3e ee a4 19 3e 31 c2 ca bd ac ef 57 be
       0.20130154 0.15004322 -0.0990032 -0.21087521
000140 45 f6 43 3d 3a 12 ac be 19 18 dd 3d 6e 9d 5a 3e
       0.047842283 -0.33607656 0.10795612 0.21349117
000150 3c dc 7b be 4d b0 9a 3c c4 2a c6 be ab 9b 9c 3e
       -0.24595731 0.018882895 -0.38704503 0.30587515
000160 70 6b 3b bd d3 3e 08 3e 61 8a 94 be 71 c6 9c 3e
       -0.045756757 0.13305216 -0.29011825 0.3062015
000170 57 57 02 3e f6 00 9d 3e 2c 1b 76 3e dc 1e a5 bd
       0.1272863 0.30664796 0.24033803 -0.080625266
000180 87 5b c4 be 9f 83 d6 bd c7 36 48 3e 34 d6 92 be
       -0.3835108 -0.104743235 0.19552146 -0.2867905
000190 bf 72 3c 3e 8f 6d 10 be a1 86 e7 bd 5e 53 fa 3e
       0.18403147 -0.14104293 -0.11304975 0.4889173
0001a0 ff 2f 88 3e 73 09 2e 3d 74 7e a1 3d b5 30 0b be
       0.26599118 0.04248948 0.07885447 -0.13592799
0001b0 5b f3 59 be 6b 8d db 3e 5a 09 6d be e3 e1 c1 be
       -0.21284239 0.4288133 -0.23148099 -0.3786765
0001c0 68 a9 76 3e 9e 47 4b be c3 12 1b 3e 42 8c b9 be
       0.24088061 -0.19851539 0.15143876 -0.3623982
0001d0 de 29 1a bd ce 44 f3 bc 63 03 96 3e 35 41 4c 3e
       -0.037637584 -0.029695895 0.2929946 0.1994675
0001e0 e4 61 56 3d 0d ca 13 3d 79 8d a8 be b0 80 c1 3e
       0.05233945 0.036081363 -0.32920435 0.37793493
0001f0 af 83 99 3d b9 76 00 3e cd 18 96 3e 79 b0 40 3d
       0.0749582 0.12545289 0.29315796 0.047043297
000200 60 e4 ca 3e 8a a2 45 3e 17 ba 1c 3e 3c aa 06 be
       0.3962736 0.19300285 0.15305363 -0.13150877
000210 7d 63 d0 bc 7f f8 01 3e 88 a3 bf 3e 56 67 00 bd
       -0.025438065 0.1269245 0.37429452 -0.03134855
000220 24 22 0b bc 4e 10 02 bd e5 42 24 bf a7 86 2a bd
       -0.0084920265 -0.03175383 -0.6416457 -0.04163232
000230 33 0a 0d 3e 9c 80 e1 bb 0f b6 be 3d 2c 90 cf be
       0.13773422 -0.0068817865 0.09312069 -0.40539682
000240 85 60 cb bd 3d 2c 90 be 36 12 8c bd 90 18 a7 3e
       -0.09930519 -0.2815875 -0.06839411 0.32635927
000250 04 11 37 3e 97 08 a4 3e 89 ad cd be 6a a2 7b 3e
       0.17877585 0.32037804 -0.4017146 0.24573675
000260 64 b9 8f 3d 76 e8 e6 be 8f 0d 85 3d 73 78 ae be
       0.07017782 -0.4509923 0.06496727 -0.3407627
000270 84 3c d7 3d 3c 2e c6 bd 54 1c 53 bc b6 6d 90 be
       0.10509589 -0.09676787 -0.012885172 -0.28208703
000280 f6 24 b1 3d 7a 90 ee 3d 78 40 c6 3e c5 f7 1e bc
       0.08649628 0.116486505 0.3872106 -0.009702628
000290 14 8f 01 bf 66 f5 48 bd 0f 8c 2d 3e 0c 56 e5 be
       -0.50608945 -0.049062155 0.1694796 -0.4479221
0002a0 26 7e 49 be 57 92 bf bd 60 1f 12 bd bd 83 ce 3d
       -0.19677028 -0.09354084 -0.035674453 0.10083721
0002b0 60 81 47 3e d1 07 01 bf 91 97 36 3e c8 5f bf 3e
       0.19482946 -0.5040255 0.17831255 0.37377763
0002c0 12 be 68 be db 3b a5 be 50 86 f5 be dc de 0d 3e
       -0.22728756 -0.3227223 -0.47954035 0.13854545
0002d0 94 50 8e 3e dd ff 17 be 5b c1 e7 be 7e eb 33 be
       0.2779585 -0.14843698 -0.45264706 -0.17570302
0002e0 27 b3 8b be 77 80 77 be 3b 5f ae be c6 75 6e be
       -0.2728512 -0.24170099 -0.3405703 -0.23287115
0002f0 c5 4d f0 3d 0c 42 49 bd d5 b2 f5 bc 8b 46 ab be
       0.11733583 -0.049135253 -0.0299925 -0.33452258
000300 84 f0 c4 3e e9 d6 82 3e 29 0d 13 bf 9e 98 e9 bc
       0.3846475 0.25554588 -0.57441956 -0.028515156
000310 4a bf da bc a0 44 4a be c2 15 8c bf f8 5c 94 be
       -0.026702542 -0.19752741 -1.094414 -0.2897718
000320 e9 0b bb 3c f4 a4 ec 3d 33 3a 9e 3d 78 55 be be
       0.022832828 0.115549 0.07725944 -0.37174582
000330 1a 6d d2 bd 38 f1 87 3e 13 3f d9 be 1f 12 9c be
       -0.10274716 0.26551223 -0.42430934 -0.30482575
000340 bb 63 84 be ff 78 8c be 22 f7 02 bc 67 26 c7 bd
       -0.25857338 -0.27436063 -0.007993491 -0.097241215
000350 b2 a4 9a 3d 2f 85 9a 3e 56 f2 88 3d 18 8a 5c 3e
       0.075509444 0.30179736 0.06686847 0.21537054
000360 3f 6f 18 bd a3 3b b5 be 52 78 cf be b9 db da bd
       -0.037215468 -0.35397062 -0.40521485 -0.1068644
000370 6b 6b 3a be fc 1f 67 bd ac af f5 be 56 7d 00 3f
       -0.18205039 -0.056426987 -0.4798559 0.5019125
000380 f6 5e 34 be 19 0b d5 be 17 70 c5 be c4 b7 62 3e
       -0.1761435 -0.4161003 -0.3856208 0.22140414
000390 ca 14 45 be 51 e2 cb be e8 57 27 3e 32 7b 84 bd
       -0.19246212 -0.39821103 0.16342127 -0.0646881
0003a0 8e 16 b4 3e b7 52 71 3e d9 7c 2a be 49 37 1a 3d
       0.35173458 0.2356671 -0.16649188 0.03765038
0003b0 d3 20 7c be d3 4c 0f 3d e7 dd ad be e5 49 1e 3d
       -0.24621896 0.034985375 -0.3395836 0.03864469
0003c0 b5 18 14 3e 6d fb 1a 3d b8 8a f2 be 6e f3 a2 3e
       0.1446255 0.037837435 -0.4737146 0.31826347
0003d0 b1 32 a6 be 5f 4b c1 3d 92 f4 f5 bc d3 87 96 3e
       -0.3246055 0.09438204 -0.030023847 0.294005
0003e0 e4 ae 94 be d3 21 8e be 2e 68 ca be 1b 4e 00 3e
       -0.2903968 -0.2776018 -0.39532608 0.12529795
0003f0 bc b3 f3 bd 59 30 c0 be a3 25 e6 3e 1b dd 3c 3e
       -0.11899516 -0.37536886 0.4495059 0.1844372

node_encoder.0.bias f4 [128]
000000 18 db 07 3e bc 1d 13 be 6d e9 37 be 22 c4 c4 bd
       0.13267171 -0.14366812 -0.17960139 -0.09607722
000010 82 de 75 be 92 01 1e bd a8 bb 82 be d6 4b b8 3c
       -0.24010661 -0.038575716 -0.25533795 0.022497099
000020 06 bb 3c 3e 83 ec ff 3d 8c 76 82 3e 95 5f b2 3c
       0.18430719 0.12496283 0.2548107 0.021774093
000030 3f c4 2a bf 9a 62 ce 3d 35 d1 0a be 8f b5 ad 3e
       -0.667057 0.100774005 -0.13556369 0.3392758
000040 b2 45 a6 be 9d 91 7b 3e 19 85 07 bd d7 5f b5 be
       -0.32475048 0.24567266 -0.033085916 -0.35424682
000050 66 0a 0f 3e 56 52 c4 bd 1f 19 af be 23 f8 a0 3e
       0.1396881 -0.09586017 -0.34198853 0.31439313
000060 de 50 37 be bf 51 cd 3d d5 b7 cc be 48 9a 73 3e
       -0.17901942 0.100253575 -0.39984003 0.23789322
000070 9b b9 30 bf 21 19 60 bb 6c d8 d8 be c8 e7 c9 be
       -0.6903321 -0.0034194665 -0.42352617 -0.39434648
000080 c1 90 ec be 6d bc 74 3d 61 31 dc 3e 1b d0 b8 3d
       -0.46204188 0.05975001 0.43006423 0.09024068
000090 65 89 60 3e a9 7a d8 be 6e 9e 43 3e 63 ee f4 3e
       0.21927412 -0.42281082 0.19103405 0.47838125
0000a0 30 3a 17 bf 99 a7 ad 3e 02 83 f4 3e 6d c3 86 be
       -0.5907316 0.3391693 0.477562 -0.26320973
0000b0 b4 ef 04 3f 09 ce 57 be a7 4d f0 bd af 0b d5 be
       0.5192826 -0.2107469 -0.11733561 -0.41610476
0000c0 45 bb 9a be b7 8a 80 3e bf 3f d9 3e f5 50 10 3b
       -0.30221 0.2510583 0.42431447 0.002202091
0000d0 a0 4f b0 be 9e 3c f1 39 e8 61 fc bd 2e 63 ab be
       -0.3443575 0.00046012265 -0.12323362 -0.33474106
0000e0 83 98 26 be b5 fe 00 bd a0 aa c0 3e 07 74 94 3d
       -0.16269116 -0.031492908 0.37630177 0.07248693
0000f0 18 b9 0b 3f 97 33 01 be 89 04 41 3e 0e 05 38 be
       0.54579306 -0.12617336 0.18849386 -0.17970678
000100 ea 06 12 be 1a 24 de be f7 b3 77 3e b2 5a 88 3e
       -0.1426045 -0.43386918 0.24189745 0.26631695
000110 73 d4 60 bd 9b e0 a3 3e 46 33 97 3e cd ac a5 3e
       -0.054890107 0.32007298 0.29531306 0.323584
000120 02 e1 df bd fa 8a a6 3e 9c 95 b0 3e 49 00 3f 3e
       -0.10931589 0.32527906 0.34489143 0.18652453
000130 a1 f7 63 be 23 58 66 3d 37 32 c9 be 83 eb 20 be
       -0.22262432 0.056236397 -0.39296123 -0.1571484
000140 86 cf 8b be c3 ae 32 be bc 5c 72 bb 22 fc 4d be
       -0.27306765 -0.17449479 -0.0036981544 -0.20115712
000150 12 f4 99 3e ab 6b bb be a0 9f a9 3e 0b 20 17 be
       0.30069023 -0.36605582 0.33129597 -0.14758317
000160 ea 8f 00 3e 43 2a f1 bd 16 c9 22 be 85 ab ce 3e
       0.12554899 -0.11775639 -0.1589702 0.40365234
000170 0a 5e aa 3e 27 3c 8b 3d 91 83 88 3d 13 64 e5 3e
       0.3327487 0.067985825 0.06665719 0.44802913
000180 fd 68 19 bf 9a 07 c5 bd 39 8e bd 3e 8b 8e 56 3e
       -0.59925824 -0.096205905 0.3702257 0.20952813
000190 4a de 33 bf f8 83 9e 3e 0f be 42 be a1 03 5e be
       -0.7026106 0.3096006 -0.19017814 -0.21681072
0001a0 c4 5b ee 3e e2 5a 45 3e 88 ad a2 be 46 fe 2a be
       0.46554387 0.1927295 -0.3177302 -0.1669856
0001b0 27 ae 63 be 5a 63 db 3e 18 3c 9e 3e 26 6a f8 be
       -0.22234403 0.42849237 0.30905223 -0.48518485
0001c0 7b 8b a2 3e 50 39 dd 3e 45 f8 9c be 5b 7c fc 3b
       0.3174704 0.43207788 -0.30658165 0.007705254
0001d0 f5 d4 38 3e 28 d6 ab 3e c0 b4 6b 3e 09 bf b8 3e
       0.18049987 0.33561826 0.2301817 0.36083248
0001e0 cb 01 47 3d 28 67 72 3e 5d 02 5c be 7d 08 49 bf
       0.048585694 0.23672163 -0.21485277 -0.7852858
0001f0 50 0b ff bd 12 ec a1 3e 38 84 cf 3d 98 51 50 3e
       -0.124533296 0.3162542 0.101326406 0.20343626

node_encoder.2.weight f4 [128, 128]
000000 73 8a c7 3c b5 89 94 bc d1 72 de bc 75 0c 11 3d
       0.02435801 -0.01813207 -0.027154358 0.03541227
000010 e2 50 15 bc 21 1d da bd 34 e3 ee bc a4 a0 42 3d
       -0.009113522 -0.10650087 -0.029161073 0.04751648
000020 79 f9 13 bd 60 a3 a3 3c 37 db a1 3d 78 f7 15 bd
       -0.036126588 0.019975364 0.0790314 -0.036612958
000030 43 c4 b0 3c ac e4 cf 3c 43 aa d0 bd df 5b 0f 3c
       0.02157796 0.025377594 -0.10188725 0.008749931
000040 64 a6 94 bc db db db 3d d8 69 d2 bd 88 b5 2e bd
       -0.018145747 0.107352935 -0.10274094 -0.04265359
000050 56 ed ca bd 80 da 33 3d c7 8b 31 bd e5 40 a4 3d
       -0.099085495 0.04390955 -0.043346193 0.0802019
000060 ff b3 81 bd 7f 88 6c bd 7f 43 ff 3c dd ab ac bd
       -0.0633316 -0.05774736 0.031160114 -0.08431218
000070 0c 28 fa 3b 4d 52 93 3d 83 24 a5 bd 86 54 76 be
       0.0076341685 0.07193432 -0.08063605 -0.2405568
000080 01 4c 1e 3d 8d 9b d2 bb 87 12 92 3d 88 5c 1c bd
       0.0386467 -0.0064272345 0.0713244 -0.038174182
000090 c7 76 ca bc 86 60 21 3b 1d ba 5b bd 2d bd a5 3d
       -0.02471484 0.0024624183 -0.05364429 0.08092723
0000a0 32 ea f4 3a cf 96 82 3c fc 9e 7e 3d 27 75 3d 3d
       0.0018685518 0.015941052 0.062163338 0.046254303
0000b0 7a 00 77 bd 96 37 72 bd 47 6b ae 3b f4 49 67 bd
       -0.06030319 -0.059135042 0.005322847 -0.05646701
0000c0 fe 0b e8 bc 66 03 0b 3e ab ae 9d bd 7b 88 3e 3c
       -0.02832603 0.13575515 -0.07699331 0.011629219
0000d0 85 56 1c 3d 5d 85 2f bd cf f3 9a 3d 5e 88 81 bd
       0.03816845 -0.042851795 0.07566034 -0.06324838
0000e0 98 aa 9d 3c 75 1e 68 bd e7 36 4e bd 04 38 44 bd
       0.019246385 -0.05666967 -0.050345328 -0.047904983
0000f0 e3 28 aa bd 42 cb 75 3d 3f 21 ab 3d 8f 4e cd bd
       -0.0830858 0.060008295 0.083559506 -0.100247495
000100 a6 7b 33 bd 48 22 1c 3d 62 56 b1 3d dd 05 df 3b
       -0.043819092 0.03811863 0.08659054 0.006806119
000110 83 57 84 bc 5f 0e e0 3c 62 e5 b6 bc 48 55 13 bc
       -0.01615501 0.027350603 -0.022326175 -0.008992501
000120 c9 66 04 3d 9e 74 ba 3b 51 4e dd bc 1a bb 7c 3d
       0.032324586 0.0056901714 -0.027014883 0.06170187
000130 8e 20 69 be ae e9 aa bd 0a 90 fe bc da 0c cb ba
       -0.22766325 -0.08345352 -0.031074543 -0.0015491501
000140 2c bd 8d bc e2 55 25 3e 43 fe 14 be 1b 9e 0e be
       -0.017302118 0.16146043 -0.14550118 -0.139275
000150 e5 b4 57 bd 1f 68 c1 bd f4 eb 77 bc b4 16 f6 3c
       -0.05266275 -0.09443688 -0.015131939 0.030040123
000160 8d f6 41 bd 86 97 8d bd 76 41 bc 3d 16 0b 16 3e
       -0.04735427 -0.069136664 0.09192173 0.14652666
000170 b3 00 b6 3d 05 f8 9f 3d c8 b1 c6 bc 99 90 17 3e
       0.08886852 0.07810978 -0.024254695 0.14801253
000180 9b 96 b2 3d dd b9 35 3d 8c 7e 1d ba e6 16 50 3e
       0.08720132 0.044366706 -0.00060079317 0.20321235
000190 dd 45 4a 3d 0a c9 ce 3d 7b 6b 27 3d fb a6 c7 bd
       0.049383033 0.10096939 0.040873986 -0.09748646
0001a0 37 36 8f 3e 31 5e 76 3a 23 72 93 3c 0e 05 80 3d
       0.2797105 0.0009398191 0.01799876 0.06250964
0001b0 c7 fb ff 3d 72 5b b2 bd 72 f7 14 3d 70 61 6a 3d
       0.124991946 -0.08708848 0.036368795 0.05722183
0001c0 a4 30 75 bd df 1f cd 3d aa ff 05 be e9 a6 a5 3d
       -0.05986084 0.100158446 -0.1308581 0.08088476
0001d0 b9 1d be 3b bd d1 f6 3b d1 fc 6d bd 54 46 d7 3d
       0.005801883 0.007532327 -0.058102433 0.10511461
0001e0 4b 7d cc 3c 08 ae de 3d c9 5c 78 be 08 48 fd 3d
       0.024962088 0.108730376 -0.24254145 0.123672545
0001f0 70 4d 02 bd 97 27 36 3c ab f2 cb bc a0 91 09 bc
       -0.03181213 0.011117837 -0.024895987 -0.008396536
000200 05 87 7e bd 06 fe 85 3d 10 1a 98 3d ce cf 83 bd
       -0.062140483 0.06542592 0.07426846 -0.0643612
000210 e6 0c d6 3b 1c 84 ad 3d dd 8d 3b 3d 9a 3d cf 3a
       0.0065322993 0.084724635 0.04578959 0.0015811205
000220 b5 2a 3f 3c 5e d9 0e bd b7 9e 01 3c dd 16 c9 3d
       0.011667897 -0.034875266 0.007911376 0.09818814
000230 4a 19 df bd f6 cc 95 3a ae ad 99 bd 57 ed 51 3d
       -0.108934954 0.0011428881 -0.0750383 0.051251736
000240 c0 e1 57 3d 12 d2 85 bc f5 0d 64 bd ae 1c 0b bc
       0.052705526 -0.01633552 -0.055677373 -0.0084907245
000250 47 d1 9a bb ea 19 0e bc 49 59 5a bd 71 4b 1e 3e
       -0.004724655 -0.008673171 -0.053307805 0.15458466
000260 1d e3 55 bd 93 c7 a4 bd fd b5 6c bc 42 c0 c8 3d
       -0.052218545 -0.08045878 -0.014447686 0.09802295
000270 7a 15 94 be a7 21 42 3e 10 da 3e bb b6 f3 73 bd
       -0.28922635 0.1895815 -0.0029121675 -0.059558593
000280 bb cc 41 3d 8a d3 30 3d f7 8b 42 3b 8f 27 48 bd
       0.047314387 0.04317049 0.0029685476 -0.04886585
000290 f4 b2 5f 3a 75 de ec 3c 84 a7 42 3d 89 36 5c 3f
       0.0008533441 0.02891467 0.047523037 0.86020714
0002a0 04 55 b9 bd 3a b7 d0 bc 87 8b 76 bd 28 8b 5a bc
       -0.090494186 -0.025477994 -0.060191657 -0.0133388415
0002b0 b9 7c 4f be cc 6f 81 bb 5a 20 b5 3c 05 19 ca bc
       -0.20262422 -0.003950095 0.022110153 -0.024670133
0002c0 5f d6 5b bd ff 42 3a 3d 22 2d 57 3d ad 60 1d bc
       -0.053671237 0.04547405 0.052533276 -0.009605569
0002d0 ea e7 e0 bc d5 e9 78 bd 89 c5 98 bd f0 b6 a6 bd
       -0.027454335 -0.060769875 -0.07459552 -0.08140361
0002e0 ce 7a 88 3c 86 f7 7e bd 65 66 ca bc 25 88 49 bb
       0.01666012 -0.062247775 -0.024707029 -0.0030751314
0002f0 55 61 da bd 29 20 b3 bd 51 81 62 bd 17 5e 3b 3d
       -0.10663096 -0.087463684 -0.055299107 0.045744028
000300 63 c7 88 bd 35 80 f5 3c 27 29 30 3d 87 f4 44 bd
       -0.06678655 0.02996836 0.043007996 -0.048084762
000310 6d 80 fa bb e2 8b b5 bd 37 e4 c3 bd 8d 6d 68 bd
       -0.007644704 -0.08864571 -0.09565013 -0.0567451
000320 ba 2b 12 3c f7 fd 49 3a ac 83 34 3d e7 75 de 3d
       0.008921558 0.0007705385 0.044070885 0.10862332
000330 d1 0b c7 bc 2f 41 44 bd c2 89 07 3c 8f 68 5d 3b
       -0.024297627 -0.047913726 0.00827259 0.0033784246
000340 bf fc e1 bd 48 3d 18 be f5 d7 35 bd 6c 5b c1 bc
       -0.110345356 -0.14867127 -0.044395406 -0.023603164
000350 ff a3 33 3d c6 8e 83 3d 91 d9 34 bd c1 5b 2c bc
       0.04385757 0.06423716 -0.0441528 -0.010519923
000360 0d 17 18 3d ab ec 6f bb e1 e3 47 bc d9 9d aa bc
       0.037131358 -0.003660957 -0.012200327 -0.02082722
000370 99 3c 06 3f 51 1a be bc e6 b3 b1 3b 93 9d 13 3b
       0.52436215 -0.023205908 0.005423057 0.0022524341
000380 5d d2 b4 bd fb 6b 3c bd 29 24 83 bc 28 8d 13 be
       -0.08829186 -0.046001416 -0.016008453 -0.14409316
000390 89 bc 8c bd 08 c7 8a 3e a8 24 52 3d d1 80 00 bd
       -0.06871898 0.27104974 0.05130449 -0.03137285
0003a0 1c 9d ba bb e2 39 9d 3d db be 7c bd 03 f3 8d bd
       -0.0056949984 0.07677056 -0.06170545 -0.069311164
0003b0 a8 78 84 3c 69 52 c5 bd b2 93 4b bd e6 71 2f 3d
       0.016170815 -0.09634859 -0.0497014 0.04283323
0003c0 49 e9 9c 3b 8b 78 66 3f d8 13 fa bc 92 ed bb 3d
       0.004788552 0.90027684 -0.03052704 0.09176172
0003d0 40 cd 95 3c c0 16 48 3d 52 b2 25 3d 7d 6f 84 bd
       0.018286347 0.04884982 0.040453263 -0.06466577
0003e0 59 f7 fe 3d 58 41 e2 bc 86 45 b6 bd f2 93 52 be
       0.124495216 -0.027619049 -0.08899979 -0.20564249
0003f0 59 5e 9c 3c 39 4d 08 bd 9c 2f 69 3d 9b 9a 91 3d
       0.019087957 -0.03327677 0.05693017 0.07109567

node_encoder.2.bias f4 [128]
000000 10 e4 73 bd 36 09 45 3e f5 f9 61 3d db f6 11 3e
       -0.05954367 0.19241795 0.05517002 0.14254324
000010 9b 3a 09 3c 15 6e 56 bd d8 6b 28 be 3c a7 89 3c
       0.008375789 -0.052351076 -0.16447389 0.016803376
000020 ae a3 96 3c 8a 1d 71 bd f0 23 82 bd 93 ea 5f 3d
       0.018388595 -0.05886606 -0.06354511 0.054667067
000030 bf be 6a bd 48 16 00 be 79 de 3b bc a9 d2 64 bd
       -0.057310816 -0.125085 -0.011466616 -0.055864964
000040 05 3d ef bd 02 9f d1 3c 93 91 79 3c 8b 4f b9 bd
       -0.116815604 0.025588516 0.0152324615 -0.09048375
000050 67 5f 6f 3c bc 2a 8e 3c d8 6f 87 3d 83 9f 36 bd
       0.014610148 0.017354362 0.066131294 -0.044585716
000060 d7 e8 82 3d b4 9e e9 3c 33 f5 3f bd b1 25 b8 3d
       0.06392067 0.028518058 -0.0468647 0.08991564
000070 53 6b 6c bd d3 ac d9 bc 44 4a b6 3c de 9a 8f bd
       -0.05771954 -0.026571667 0.02225221 -0.070119604
000080 eb 01 87 bd 0c 0c 80 bc c2 09 89 bd c9 2a 1d be
       -0.06592163 -0.015630744 -0.06691314 -0.15348352
000090 c0 d4 84 3d 1c 02 2c be 78 cc ac bd 2c d9 80 bc
       0.06485891 -0.1679768 -0.08437437 -0.015728556
0000a0 36 48 d8 3d 26 84 92 bd 91 5d 7e bd bd 25 d9 bc
       0.10560648 -0.071541116 -0.06210095 -0.026507253
0000b0 6c 8b 45 3c 08 2a 0c 3d 81 16 1a bc 15 44 8f 3d
       0.012057167 0.03421977 -0.009404779 0.069954075
0000c0 66 eb 10 3d bd 9d ff bd 0e ae cd bd f0 37 74 bc
       0.035380743 -0.12481258 -0.10042964 -0.014905915
0000d0 71 9c 36 3c 63 1f 0a bd 55 58 52 3b ab bc 19 be
       0.011145697 -0.03372134 0.0032096107 -0.15013377
0000e0 6e de 09 be d6 49 ba 3b 59 43 80 ba e5 69 ac 3d
       -0.13463756 0.0056850715 -0.0009785696 0.08418635
0000f0 d2 7d 15 be 54 47 45 3c f3 b4 99 bb e8 02 6b bd
       -0.14598778 0.012040932 -0.0046907603 -0.05737582
000100 85 85 46 bd 08 2a a8 3d 40 e6 1f be e4 0b 89 bc
       -0.048467178 0.08211142 -0.15615177 -0.016729303
000110 13 9f 44 bc ea a5 4b 3d b9 bb ed bd d0 93 98 3d
       -0.012000817 0.049718775 -0.11608071 0.07450068
000120 1d 7c 24 be ba e6 8f bd c2 4c d3 bd 0a e3 00 3e
       -0.1606297 -0.070264295 -0.10317375 0.12586609
000130 57 0d 15 be 29 59 32 bd 43 29 98 3d 78 6a 85 bc
       -0.1455587 -0.04354206 0.07429745 -0.01628612
000140 bd a5 f5 3d 30 f9 9e bc 51 7e da bd 72 52 ab 3c
       0.11994503 -0.019405931 -0.10668624 0.020913336
000150 5c 19 8f bb d2 4e cf 3d 80 79 be bd 4d be b1 bd
       -0.0043670367 0.10122456 -0.09300518 -0.08678875
000160 00 38 32 3d 3e 1e 3b bc 8a 18 cc 3a a6 47 bb 3d
       0.043510437 -0.0114207845 0.0015571278 0.09144525
000170 12 f4 70 3d 55 ed da 3b ed 17 27 be 45 ef 29 3e
       0.058826514 0.006681124 -0.1631772 0.1659518
000180 7d 54 5b bd 4d f3 55 3d 49 e5 a5 bd 7c 72 82 3d
       -0.05354737 0.052233983 -0.08100373 0.063694924
000190 4e 19 de 3b 77 7b ce 3d 11 ce fe 3d cf 04 d0 bb
       0.006777919 0.10082143 0.12441648 -0.0063482295
0001a0 c9 92 01 3d 76 58 34 bc 1c aa 53 bc 55 2b 84 3b
       0.031634126 -0.011007419 -0.012918975 0.004033486
0001b0 5f 5a 97 bb 59 d9 87 bd de 46 c9 bc fb d9 8b bd
       -0.0046189274 -0.06633253 -0.024569925 -0.06828686
0001c0 5f 8d b3 bd b9 2a 4f 3d b5 fc 23 bd fe b5 53 3c
       -0.08767199 0.050577853 -0.040035922 0.012921808
0001d0 4f e2 04 3e f7 c1 68 3d 36 d8 e6 3d dc 8d a7 bb
       0.12976955 0.056825604 0.11271708 -0.0051133465
0001e0 4d 49 af bd 39 8c c4 3d c9 40 59 3d 2e f8 2c be
       -0.08558903 0.09597058 0.0530403 -0.16891548
0001f0 3a 09 8a bd 36 1b fc 3d 08 05 75 3a cd d6 31 bd
       -0.06740041 0.123098776 0.0009346758 -0.04341774

edge_encoder.0.weight f4 [128, 2]
000000 c0 56 6d bd 94 fe 87 be d0 26 2c 3e 2c 91 31 bf
       -0.05794406 -0.26561415 0.16811681 -0.6936214
000010 55 e0 2a 3f 9a fb b8 be e8 08 fe be 88 f2 96 bd
       0.66748554 -0.36129457 -0.4961617 -0.07370478
000020 9f 04 22 3f d3 db 06 bf 9e 62 ba 3e 89 35 23 bf
       0.632883 -0.52679175 0.36403364 -0.63753563
000030 cb dc 19 3f 1e 6a ef 3e 20 fe 50 be 94 51 70 3e
       0.6010253 0.46760648 -0.20409441 0.2346862
000040 00 8f cc 3d 0e a0 cc 3e 10 7b 03 bf fc 8b 02 be
       0.099882126 0.39965862 -0.51359653 -0.12748712
000050 6a 59 97 3e 9d c0 33 3f 18 68 13 3e 9e 55 a0 3e
       0.29560405 0.7021578 0.14395177 0.3131532
000060 0e 03 fb be a7 f7 0a 3f e5 0b 23 3f a5 04 30 bf
       -0.49025768 0.5428414 0.63690025 -0.68757087
000070 53 b5 b6 be ee 65 c1 3e 68 be a9 be 90 49 91 bd
       -0.35685214 0.3777308 -0.3315308 -0.07094109
000080 a0 2b b5 3d e0 ee 8e be 60 21 12 3e b4 5e 3a 3e
       0.088462114 -0.27916622 0.14270544 0.18200189
000090 de 8d da be 8e 8a 04 bf 56 22 17 bf a0 0b dc bc
       -0.4268636 -0.5177392 -0.5903677 -0.026861012
0000a0 a0 15 ae 3c 9c 7c 45 3e 91 74 12 3f de d7 b6 3e
       0.021250546 0.19285816 0.57209116 0.3571157
0000b0 fc 15 1c be b4 dc 1c bf 60 d9 2d bd 7e c6 e9 3e
       -0.15242761 -0.61274266 -0.042443633 0.4565925
0000c0 e9 49 18 3f 30 38 7c 3d 60 8e 53 3e 70 19 72 3d
       0.5948778 0.061577022 0.2065978 0.05910629
0000d0 3e 82 a9 3e c5 a3 1b 3f 10 d3 47 be 50 7f 93 bd
       0.3310718 0.6079677 -0.19514108 -0.07202017
0000e0 10 11 c0 bd f0 6e 84 bd 35 fa 14 3f 9e c5 2d bf
       -0.093782544 -0.06466472 0.58194286 -0.67879665
0000f0 1f 0f 26 3f f8 31 09 bf ed 62 e8 be 0b 9c 8e be
       0.6486682 -0.5359187 -0.45387974 -0.27853426
000100 fe d4 ef 3e 80 b2 14 3e 72 a6 cb 3e f2 b9 ff 3e
       0.46842188 0.14521217 0.39775425 0.49946553
000110 4f 9f 27 3f 5c e2 6f 3e 5a 05 c2 3e b7 bc 8c be
       0.6547746 0.23426193 0.37894708 -0.27487728
000120 63 3c 00 bf f7 28 25 bf 40 2f 61 bd 38 c8 57 3e
       -0.5009214 -0.6451563 -0.0549767 0.21072471
000130 f3 be 08 bf 33 fe 2e 3f 2d b5 11 bf 49 7b 92 be
       -0.53416365 0.6835663 -0.5691708 -0.28609684
000140 2c 92 53 3e 05 68 21 3f a8 3a ab 3d 6a 3c cd 3e
       0.20661229 0.63049346 0.08360797 0.40085155
000150 8c 05 06 be 5c a5 e2 be 74 ed 04 3e aa a9 b9 3e
       -0.13088053 -0.44266784 0.12981206 0.36262256
000160 f6 90 9e 3e fe bd bc 3e 00 48 8f 3d 01 49 2b 3f
       0.3096997 0.36863703 0.06996155 0.6690827
000170 d1 53 9b be 6e cf d3 3e 60 fb 8b 3d 48 2a 3c be
       -0.30337384 0.41369194 0.06835055 -0.18375504
000180 60 73 19 bd a4 76 05 bf f1 c3 e6 be a8 7a e5 bd
       -0.037463546 -0.52134156 -0.45071366 -0.112050354
000190 30 82 4d be a4 a4 7d 3e b9 45 f9 be 5a c7 15 bf
       -0.20069194 0.24769837 -0.48686007 -0.5850731
0001a0 3b eb 94 be 16 f3 a6 3e 60 5a c6 3c f8 7e 39 be
       -0.29085717 0.32607335 0.024213016 -0.18114841
0001b0 70 ce 8c be 20 95 14 3d 55 bb 12 3f b0 0d 2b 3e
       -0.2750125 0.03627503 0.57317096 0.1670444
0001c0 70 38 71 3d 7a e4 03 bf 0e ca d4 3e 1b 2c 2b 3f
       0.058891714 -0.515205 0.41560405 0.66864175
0001d0 a6 20 f4 3e bc ba 20 3e 57 43 af be b8 22 8c 3e
       0.4768116 0.15696234 -0.34231064 0.27370238
0001e0 7b f9 0f bf 20 2c d3 be ee 4c b8 3e 48 90 de bd
       -0.5624005 -0.41244602 0.35996193 -0.10867363
0001f0 b0 92 77 bd c6 54 cc 3e 1b 6d 2d 3f 46 21 6c be
       -0.060442626 0.39908427 0.67744607 -0.23059568
000200 7a 1b c3 3e d8 00 d8 be 5a 74 25 bf 2a d5 d5 3e
       0.381069 -0.42188144 -0.64630663 0.41764194
000210 80 23 d3 3d a0 fb a1 bd 6d 49 10 3f 3c 3f 60 be
       0.103095055 -0.07909322 0.5636204 -0.21899122
000220 02 95 27 bf 48 82 f0 be 71 a7 33 bf 60 82 b6 bd
       -0.6546174 -0.46974397 -0.7017737 -0.08911586
000230 38 af b4 bd e0 9b a1 3c 9c 84 1b bf 40 83 6a 3e
       -0.08822483 0.019727647 -0.6074922 0.2290163
000240 8a fc cd 3e 12 08 e8 3e 06 3a 92 be 6b e7 8a be
       0.40231735 0.45318657 -0.28559893 -0.27129683
000250 79 29 15 3f 40 a7 a3 3c a0 08 89 3c f2 31 cf be
       0.5826641 0.019977212 0.016727746 -0.40467793
000260 f8 9d 68 be 41 5b 30 3f 00 6e e1 bd 8a 74 c3 3e
       -0.2271651 0.6888924 -0.11007309 0.3817485
000270 90 c2 21 bf a8 86 0a be 6a a5 db 3e ae 71 17 bf
       -0.63187504 -0.1352793 0.42899638 -0.59157836
000280 27 68 c0 be 69 28 2b 3f 46 cc 9f 3e f6 5e d5 3e
       -0.37579462 0.66858536 0.31210536 0.41674012
000290 5a bf 2e bf 78 20 83 bd 26 a8 b0 3e b4 4d 32 be
       -0.6826073 -0.06402677 0.34503287 -0.17412454
0002a0 7f 51 16 bf a6 aa ff 3e 95 a3 08 bf 6c f3 1d bf
       -0.58718103 0.49934882 -0.53374606 -0.6169956
0002b0 d0 c7 34 3e 00 25 4e bd 50 8e fd 3d 06 9b d5 3e
       0.17654347 -0.050328255 0.123806596 0.41719836
0002c0 71 20 2d bf 58 86 da bd 45 fa 94 be 0e d4 c3 3e
       -0.67627627 -0.10670155 -0.2909719 0.38247722
0002d0 c5 f3 1f bf f3 cf 0a 3f fe 74 de 3e 7c 88 d4 be
       -0.6248134 0.54223555 0.43448633 -0.4151038
0002e0 c8 67 d0 be 1c 8d 52 3e e4 7b 4c 3e 2c 7b 51 3e
       -0.4070418 0.20561641 0.19969136 0.20457143
0002f0 9d e0 12 bf 70 b4 74 3d 8d 5c 94 be f9 c6 32 3f
       -0.5737398 0.05974239 -0.2897686 0.6983486
000300 80 02 a6 bb 70 7c 76 3d 9a 15 a1 3e 19 4b 14 3f
       -0.005066216 0.060177267 0.31461793 0.5792709
000310 ca b0 a5 3e 60 3e 9b 3d b2 4d e2 3e f2 d6 15 bf
       0.32361442 0.075802565 0.44199902 -0.58531106
000320 15 f9 24 3f 95 aa 1f bf 50 aa 2f bd e6 0c 32 bf
       0.6444257 -0.6236966 -0.042887032 -0.6955093
000330 ac e1 22 bf 02 62 f7 3e a7 ab 23 3f 81 5b 26 bf
       -0.636256 0.48316962 0.63933796 -0.64983374
000340 c0 ce 02 bc 3c 43 1e be d4 e3 cb be 53 61 a9 be
       -0.007983863 -0.15455335 -0.39822257 -0.33082065
000350 d1 72 a4 be 0a 05 f5 3e 10 29 ba bd bb 0c 07 bf
       -0.32118848 0.47855407 -0.09089863 -0.527538
000360 b3 c3 ea be 22 d3 a4 3e 69 88 0e bf 40 72 39 bd
       -0.45852432 0.32192332 -0.55676895 -0.045274973
000370 bc 1f 3c be 54 cb 2b be 1e 69 ec 3e 80 3b cf 3b
       -0.1837148 -0.16776782 0.46173948 0.0063242316
000380 d8 5f 94 3e 6c 5b c9 be 35 17 27 bf 84 b3 13 3e
       0.28979373 -0.39327562 -0.65269786 0.14423949
000390 c0 36 37 be 92 5e e3 3e 37 f6 c2 be 70 86 84 bd
       -0.17891979 0.4440809 -0.38078472 -0.064709544
0003a0 d0 a8 60 be b8 36 04 3e cc 52 3e be a6 41 9e 3e
       -0.21939397 0.12911499 -0.18586272 0.3090946
0003b0 a7 10 09 3f 78 74 c0 bd 19 74 11 bf 60 1e 3b 3e
       0.53541034 -0.09397215 -0.56817776 0.18273306
0003c0 59 d2 02 3f 15 1d 02 3f 08 89 84 bd 8d 95 29 3f
       0.51102215 0.50825626 -0.06471449 0.6624382
0003d0 1a 7a be 3e e0 27 b0 3d 2a 84 e8 3e 0d 73 bd be
       0.3720253 0.086013556 0.45413333 -0.3700184
0003e0 d4 1d 61 3e b2 c4 0b bf 4e 69 87 3e e8 23 fa bd
       0.21984035 -0.5459701 0.2644753 -0.1221388
0003f0 2e ed d0 be 64 fb 0d 3e bc 9c 25 bf 78 83 91 3e
       -0.40805954 0.13865429 -0.6469228 0.28420615

edge_encoder.0.bias f4 [128]
000000 be 36 07 bf 6a 71 fe be 03 e7 0c 3f fa 0b f8 be
       -0.52817905 -0.49695903 0.55039996 -0.48446637
000010 86 5e b3 3e ca 6b fd 3e 20 59 8f 3d 22 be d5 3e
       0.35033053 0.494963 0.06999421 0.41746622
000020 1b e5 93 be b8 ed a6 bd 01 bc cc be d7 e4 00 3f
       -0.2888573 -0.0815081 -0.39987186 0.5034918
000030 80 66 e7 be 65 61 28 3f 38 ab a3 bd 60 03 21 be
       -0.4519539 0.6577361 -0.07991642 -0.15723944
000040 e6 dc f5 be 40 a3 93 3c 46 0e 0f bf 54 0d 28 be
       -0.48020095 0.01802218 -0.55881155 -0.16411334
000050 e3 35 05 3f f3 51 00 bf 80 ad cc 3c 1a 37 8e 3e
       0.5203535 -0.50125045 0.024985075 0.27776414
000060 06 67 fe 3e 62 ee b7 3e 36 8e b0 3e ae 2c b3 3e
       0.49687976 0.3592406 0.34483498 0.34995025
000070 4e 31 83 be 7d 5a 1c 3f 96 34 13 bf ca 72 86 3e
       -0.25623554 0.61075574 -0.57502115 0.26259452
000080 d4 34 f1 be 3e ce bd 3e 00 25 50 be 81 63 0d 3f
       -0.47110617 0.37071413 -0.20326614 0.55229956
000090 20 b7 fe bc f7 8c f9 be 28 83 f0 3d d9 5c 0e bf
       -0.03109318 -0.4874036 0.11743766 -0.55610424
0000a0 90 b2 28 bd ee 17 22 bf 34 0e 6c be aa 13 ad 3e
       -0.041185915 -0.63317764 -0.23052293 0.33804065
0000b0 30 b0 58 3d c0 7c b9 be f6 67 ff 3e dd d9 2c bf
       0.0529024 -0.3622799 0.49884003 -0.67519933
0000c0 eb 9c 0f 3f 1c bc 02 be 30 25 60 3d 98 8b 24 be
       0.5609881 -0.1276707 0.054722965 -0.16068876
0000d0 3b 44 dc be cc df 74 be be ac bf 3e 4a ac aa 3e
       -0.43020806 -0.23913497 0.3743648 0.3333457
0000e0 0c 48 03 bf ec bb 02 be 82 7e ba 3e be 90 c3 3e
       -0.5128181 -0.12766999 0.36424643 0.38196367
0000f0 d8 e4 bb bd 18 29 df bd 9b 20 31 3f 80 fc 0e bd
       -0.09174508 -0.1089651 0.69190377 -0.03490877
000100 c0 67 7c 3d b8 da 03 bf 20 ca a7 bc 0f 28 08 3f
       0.06162238 -0.51505613 -0.020482123 0.53186125
000110 80 88 35 bc c3 49 d0 be 48 a6 34 3e 1e a2 e2 3e
       -0.011079907 -0.40681276 0.17641556 0.4426431
000120 50 06 8a 3e b7 fa 21 3f fc ff 3b 3e e6 82 cc 3e
       0.2695794 0.63273185 0.18359369 0.39943618
000130 3f 4c 30 3f bf 8b 08 3f 4c 41 15 bf 80 9f f7 bb
       0.6886634 0.53338236 -0.5830276 -0.0075568557
000140 09 ac 16 3f b4 9e 2f 3e 60 92 96 3d a6 91 a5 3e
       0.58856255 0.17150384 0.073521376 0.32337683
000150 6f 0a 84 be 4e 33 a8 3e 87 21 0e 3f e7 8b 0e 3f
       -0.2578921 0.32851642 0.5551991 0.55682224
000160 0b 95 34 3f 30 96 64 3e 71 12 15 3f 1e 6b a2 be
       0.7053992 0.22322917 0.58231264 -0.3172235
000170 fd b3 10 3f 40 de c2 3d 6c 55 4b 3e 17 1c 04 3f
       0.5652464 0.09515047 0.19856805 0.5160536
000180 3b 6b 34 bf 44 dd 2f be 57 bd b9 be bf 82 13 3f
       -0.7047612 -0.1717425 -0.36277267 0.5762138
000190 8e db f7 be 68 0a 4d 3e dc 20 1b be 0a 45 d5 3e
       -0.48409694 0.20023501 -0.15149254 0.41654235
0001a0 5e 80 f0 3e 30 d6 16 bd 5c 57 76 be f6 b7 ee 3e
       0.46972936 -0.03682536 -0.24056762 0.46624726
0001b0 fe 52 be 3e da 5c a7 3e c8 7c 36 be 40 aa 50 3e
       0.37172693 0.32688028 -0.17821038 0.20377445
0001c0 a1 b3 c3 be 41 90 19 bf 20 04 b8 3c 7a 2f 03 bf
       -0.38222983 -0.5998574 0.022462904 -0.5124432
0001d0 24 f7 86 3e e3 8f a2 be 69 5e f6 be ef 12 18 bf
       0.26360428 -0.31750402 -0.48118904 -0.5940389
0001e0 80 01 a0 be b0 88 47 be 1c fa 8f 3e 26 79 ff 3e
       -0.31251144 -0.19485736 0.28120506 0.49897116
0001f0 42 fc be be 64 cd a2 be 0a 14 c5 3e 40 2e b1 bd
       -0.37301832 -0.31797326 0.3849185 -0.086513996

edge_encoder.2.weight f4 [128, 128]
000000 0e 82 dd bc 7a bb 38 bd 67 4a ac bd 8f 2d 51 bd
       -0.027039554 -0.045100667 -0.084126286 -0.05106884
000010 c6 67 2f 3d cb e8 82 3d 5d 3a b3 bd 57 dc 39 bd
       0.042823575 0.06392058 -0.08751366 -0.045376148
000020 68 fc 99 3c 00 4f 1c 3b 8e 34 44 bd f8 3d d9 3c
       0.018797114 0.0023850799 -0.047901683 0.026518807
000030 c9 bb 9c 3d 40 fa 66 bb f8 8f 79 bd e2 64 05 bd
       0.07653005 -0.0035244375 -0.060928315 -0.032566912
000040 88 37 66 bc d0 05 df 3c b2 59 fc bc 42 20 4d bd
       -0.014051326 0.027224451 -0.030804489 -0.05007959
000050 7c ac a2 bd 3d 2f 5c bd eb 5f 8e bd c3 45 20 bd
       -0.07943055 -0.053755987 -0.06951889 -0.03912903
000060 be 9d 2a bd 4d b7 a6 bd 90 78 67 3c 30 8f a7 bb
       -0.04165434 -0.081404306 0.014127865 -0.005113505
000070 e8 b7 a6 bc 16 62 39 3d 85 e4 08 bd 3a 91 74 3d
       -0.020351365 0.045259558 -0.03342106 0.05970881
000080 de 3f a9 bd a4 0e e1 3c a0 26 8e bc b3 4f a7 3d
       -0.08264135 0.027472802 -0.017352402 0.08169498
000090 fb a7 89 3d 48 b2 00 3c 56 86 2b bd df cc 86 3d
       0.06721493 0.007855006 -0.04187616 0.06582045
0000a0 69 97 17 bd 62 51 02 3d 20 53 84 bd 80 89 0f 3a
       -0.03700963 0.031815894 -0.06461167 0.0005475506
0000b0 d0 21 af 3c d3 a0 63 bd 64 b1 99 bc 28 25 8e bd
       0.021378428 -0.055573296 -0.018761344 -0.06940681
0000c0 cc 93 ab bc 5a ac ed bc ca b1 1a bd 57 1f 60 bd
       -0.020944498 -0.029012848 -0.03776721 -0.054717388
0000d0 52 5d 89 bd f8 51 af bc ef da 8a 3d 0b a9 9c 3d
       -0.067072526 -0.02140139 0.067800395 0.0764943
0000e0 7e 22 28 3d 88 3a 9b bc ba 7d 8b bd c7 ef 92 3d
       0.04104852 -0.018948808 -0.0681109 0.0717464
0000f0 54 32 99 bc 74 82 98 3c e8 8b b4 bd 40 9a 02 bb
       -0.018700756 0.018616892 -0.088157475 -0.0019928366
000100 7a 44 41 3d da 8f 5f 3d da b5 13 3d 7c 35 12 3d
       0.047184445 0.054580547 0.0360621 0.035695538
000110 80 8e 49 3b d2 6c 17 bd 45 39 9b 3d 8e e9 3b 3d
       0.0030755103 -0.036969014 0.07579283 0.045877032
000120 c2 80 1c bd 8d 86 00 bd 40 28 68 bc 89 5b 22 bd
       -0.03820873 -0.031378318 -0.014169753 -0.039638076
000130 a4 83 c0 3c 9b 07 83 3d 92 cf 1e 3d 40 27 eb bb
       0.023500271 0.06397935 0.038772173 -0.00717631
000140 9b 4e 8c bd aa 06 58 bd 16 34 46 3d 92 47 44 bd
       -0.0685093 -0.05274073 0.048389517 -0.047919817
000150 14 c6 91 bd b8 20 ab bd 15 89 32 bd 08 ed ba 3c
       -0.071178585 -0.0835585 -0.043587763 0.022818103
000160 ef b3 88 bd c8 82 06 3d 80 67 07 bd 3d 30 83 3d
       -0.066749446 0.032839566 -0.03305769 0.06405685
000170 32 3e 25 3d ee 5c 05 3d e4 36 fc 3c f8 6a 7a bc
       0.040342517 0.032559328 0.030787893 -0.015284292
000180 0b 98 a5 3d 8e 0a 4b 3d b3 fe 81 bd a3 f5 29 bd
       0.080856405 0.049570613 -0.06347408 -0.041494023
000190 3e c4 86 bd 58 36 2a 3c e2 03 2a 3d da 72 f6 bc
       -0.06580399 0.010388933 0.04150761 -0.030084062
0001a0 18 5a 60 bd 9f 73 07 bd aa 6c 2e 3d 88 c8 0f bc
       -0.05477342 -0.03306925 0.0425841 -0.008775838
0001b0 c8 3c 8c 3c 14 d5 c2 bc a0 5f a7 bc 35 e7 8a 3d
       0.017118827 -0.023783244 -0.02043134 0.067823805
0001c0 e9 60 aa 3d 13 ae 2c bd 88 80 0f bc e2 7b 3d 3d
       0.083192654 -0.042158198 -0.008758672 0.046260722
0001d0 00 39 1f 3c 98 ec 90 3c ff d4 1d bd 6c 33 db bc
       0.00971818 0.017690942 -0.038533207 -0.026757918
0001e0 29 53 99 3d af 9f 9b 3d 0c 94 ae bd 68 10 65 bc
       0.07486565 0.075988166 -0.085243315 -0.013980962
0001f0 7e 43 32 3d 12 89 56 3d 90 c7 a3 3b cf cb 93 bd
       0.043521397 0.052376814 0.004998155 -0.07216608
000200 e0 94 8e 3c b2 dc 78 bd e2 75 0e bd 79 46 1b bd
       0.017404974 -0.060757346 -0.03478039 -0.037909005
000210 59 e2 9a bd 70 c2 61 3c 9c b1 b2 bc 39 2d 80 3d
       -0.07562704 0.013779268 -0.021813206 0.062586255
000220 0e e4 78 3d 20 bf 10 3c ad 1f a4 bd 40 cb df 3a
       0.060764365 0.00883463 -0.08013854 0.0017074123
000230 0d 72 a9 3d e4 41 f1 bc 22 3f 55 3d 47 76 90 3d
       0.082737066 -0.029450364 0.05206216 0.070538096
000240 96 4a 50 3d b0 78 97 bd cc a2 93 3c 1a da 02 bd
       0.05085238 -0.07396066 0.018021964 -0.03194628
000250 3e bc 57 3d 0d 11 34 bd 4e 1f 10 bd b6 a3 7f 3d
       0.052669756 -0.043961573 -0.035186104 0.062411986
000260 b2 46 83 bd 26 35 0c 3d bd e5 ae 3d 30 c7 c0 bb
       -0.064099684 0.034230374 0.08539913 -0.00588312
000270 70 c3 d6 3b 8f ca 82 3d d6 cb 1e 3d b7 68 a5 3d
       0.0065540597 0.06386291 0.03876861 0.080766134
000280 1e a6 8e bd b9 63 94 3d c4 c4 3f bd 00 f4 a6 bb
       -0.06965278 0.07245583 -0.04681851 -0.005095005
000290 6d 24 37 bd 9e 4d 1f 3d 8e 9b 3d bd aa 16 a3 bd
       -0.044712473 0.03889238 -0.046290927 -0.07963307
0002a0 94 94 ac 3c 3a f3 8c bd 28 61 0f bc 1a a1 1e 3d
       0.021066941 -0.06882329 -0.008751191 0.038727857
0002b0 52 c8 64 3d 66 c2 46 bd da 9a fd bc 46 39 d7 bc
       0.055855103 -0.048525237 -0.030957628 -0.026272427
0002c0 c4 e0 b1 bd af 5f a8 bd d0 8f d5 bc b4 1b 98 bd
       -0.08685449 -0.08221375 -0.026069552 -0.07427159
0002d0 6f 19 aa 3d fa 89 70 3d 80 48 8b bd 66 21 e9 bc
       0.08305632 0.058725335 -0.06800938 -0.028458308
0002e0 7e 25 7c 3d bf 7b 19 bd 15 21 3f bd 5c 8c a2 bd
       0.061559193 -0.03747153 -0.04666241 -0.07936928
0002f0 30 f8 3d bc 1a 99 e9 bc 16 5b 52 3d 51 a3 66 bd
       -0.011594817 -0.028515387 0.051356398 -0.056308094
000300 9e 55 a9 bd 50 7f 80 bc 90 2c a2 bc a1 64 55 bd
       -0.08268283 -0.015685707 -0.01979664 -0.05209792
000310 36 3c 09 3d ba 40 74 3d 08 28 d3 bc 45 2c 91 3d
       0.033504687 0.05963204 -0.025775924 0.07088522
000320 62 21 21 bd 1a df e6 bc e0 84 b7 bb 80 71 74 bb
       -0.039338477 -0.028182555 -0.0056005567 -0.0037299097
000330 08 c8 07 3c 22 3a 1c 3d 40 3b 83 3b fb 85 9d 3d
       0.008287437 0.038141377 0.004004866 0.0769157
000340 67 88 8a 3d 82 eb 18 bd f5 fa a2 bd b3 1f 54 bd
       0.06764298 -0.037333973 -0.079580225 -0.051788043
000350 91 44 80 3d da be 47 3d ae da 27 3d 50 9b d4 bb
       0.06263078 0.048765995 0.040980034 -0.0064882413
000360 a5 41 98 3d d2 4f 75 bd 08 95 55 bd 24 f5 ed 3c
       0.07434396 -0.059890576 -0.05214408 0.029047556
000370 c0 e9 e3 bb 2e 79 43 3d d0 8d 3f bc 97 53 86 bd
       -0.0069553554 0.047722988 -0.011691526 -0.06558912
000380 0a fc 5e 3d 7a d2 8d bd 80 7b 20 3a d8 98 43 bc
       0.054439582 -0.06924911 0.00061219186 -0.011938296
000390 20 ef e1 bb d8 29 b7 3c a4 7c 17 bd 71 d4 5b bd
       -0.006894961 0.02235882 -0.0369841 -0.053669397
0003a0 50 24 96 bd 98 6c c7 3c b0 1a c8 3b 11 f1 92 3d
       -0.07331145 0.024343774 0.006106697 0.07174886
0003b0 b0 53 f7 bb 5e 8e 97 bd d2 fe e4 bc d8 1e a4 bc
       -0.007547818 -0.07400201 -0.027953539 -0.020034239
0003c0 a5 c7 aa bd fc 7c e2 3c 2b 88 a5 3d 78 db b9 3c
       -0.083388604 0.027647488 0.080826126 0.022687659
0003d0 f5 ff 9e 3d a6 dc 6f 3d 9a 8f 64 3d 7b ac 41 bd
       0.07763664 0.058560036 0.05580101 -0.04728363
0003e0 22 29 99 bd 60 31 9e bd e0 8c 9f bc d8 08 d0 bc
       -0.074785486 -0.07724261 -0.019476354 -0.025394842
0003f0 cb 61 a9 3d 2b 67 64 bd 07 75 8b 3d 89 da b3 3d
       0.08270606 -0.05576245 0.068094306 0.08781917

edge_encoder.2.bias f4 [128]
000000 4b 53 0d bd 06 fe a3 bd 83 72 85 3d 03 49 86 bd
       -0.034503262 -0.080074355 0.06515982 -0.06556895
000010 e0 be 48 bb c2 4a 56 bd d5 ae 86 3d 0e 5b 30 bd
       -0.0030631348 -0.05231739 0.06576315 -0.043055587
000020 e8 40 2f 3c 6a 75 6e bd a0 c7 ce 3c 28 b8 c2 3c
       0.010696627 -0.058217444 0.025241673 0.023769453
000030 7a 5b 5f 3d f0 42 a4 bc ca b9 77 3d e5 13 8b 3d
       0.0545306 -0.02005145 0.060479917 0.06790904
000040 10 78 d7 bb 00 d8 93 3b d1 e2 28 bd c7 35 a8 3d
       -0.006575592 0.004511833 -0.041231934 0.08213382
000050 36 3d 55 3d 02 5d 25 3d 28 cb 47 3c b4 ce 86 3c
       0.05206033 0.040371902 0.012194432 0.016455986
000060 18 10 06 3c 36 ff a6 bd dd 0c 8c 3d 5c 7b 6b bd
       0.008182548 -0.081541464 0.06838391 -0.05749069
000070 48 d1 5d bd 59 d3 ab 3d 62 eb 72 3d 14 42 b0 bc
       -0.054154664 0.08389921 0.05930651 -0.021515884
000080 0f 61 64 bd 78 ad 6c 3c 02 c3 04 bd 59 f5 2c bd
       -0.055756625 0.014445655 -0.032412536 -0.04222617
000090 32 5e 83 bd 9e a6 3b 3d 9d 67 3d bd 0b 40 80 3d
       -0.06414451 0.045813195 -0.04624139 0.06262215
0000a0 c8 75 3a 3c 12 e3 4f 3d 18 2b 50 bc 1e e4 10 3d
       0.01138062 0.05075366 -0.012705587 0.0353738
0000b0 e4 df a8 bd f2 2b a3 bd 6a 22 9d bd 19 d3 5a bd
       -0.08245829 -0.07967366 -0.076725796 -0.053423975
0000c0 a2 16 3f 3d f7 45 b4 3d 4b ef b4 bd 55 66 97 3d
       0.046652444 0.08802407 -0.08834704 0.07392565
0000d0 ac bf ec bc 01 cf 82 3d 2e 38 e6 bc 82 50 84 bd
       -0.02889999 0.06387139 -0.02810296 -0.06460668
0000e0 92 29 a0 bd 5e 64 15 bd ed ed a3 bd f8 fe d1 3c
       -0.07820429 -0.03647267 -0.08004365 0.025634274
0000f0 f6 1f 14 3d a0 8e 8a bc a4 05 96 bd 93 ee a9 3d
       0.036163293 -0.016913712 -0.073252946 0.082974575
000100 e6 2d 7b 3d df ae a4 3d 6a af 26 3d b0 c3 92 3b
       0.06132307 0.080411665 0.04069463 0.004478894
000110 2c 7f 98 bc 77 59 87 3d 76 ef 1d bd 0a 50 20 3d
       -0.018615328 0.06608861 -0.038558446 0.03913883
000120 38 82 b5 3c 72 b3 58 3d db 57 9e 3d 40 bf f3 3b
       0.02215682 0.052905507 0.07731601 0.0074385703
000130 08 a2 1a 3c 58 93 da bc fc d0 b8 bc 16 61 f2 bc
       0.009438045 -0.026681587 -0.022560589 -0.02958731
000140 d8 c6 0d 3d 84 45 db bc b8 d3 fa 3c 5a a4 33 3d
       0.03461346 -0.026766546 0.030618533 0.04385791
000150 c0 f5 9b 3b 48 22 64 3c 5d 7f b2 3d 3a b6 78 3d
       0.0047595203 0.013924189 0.08715699 0.06072066
000160 d1 a3 0d bd f4 ec 9f bd 90 ae 83 bc 6b fe 0a bd
       -0.034580056 -0.07808867 -0.016074449 -0.033934038
000170 73 b8 83 3d 27 96 a5 3d 66 b3 76 3d 66 db 0b 3d
       0.06431665 0.0808528 0.06022968 0.03414478
000180 d3 a6 a6 3d c6 2f 60 3d 6c 19 90 3c db c7 8b bd
       0.08137288 0.05473306 0.017590247 -0.06825229
000190 c2 fc fe bc aa 77 22 3d 86 68 f8 bc 88 64 85 3c
       -0.031126384 0.0396649 -0.030323278 0.016283289
0001a0 80 e4 a1 3a 9f db 9e 3d 00 4b ce b9 a8 a7 8c bd
       0.0012351424 0.07756733 -0.0003934726 -0.068679154
0001b0 a2 11 2e 3d bd 0d a6 bd ef 1a 95 bd b1 6d 82 bd
       0.042497285 -0.08108089 -0.07280528 -0.06368578
0001c0 92 c5 38 3d 90 0f 97 3c 8a cf 63 3d da 1d 88 bd
       0.045110293 0.018440038 0.055617847 -0.06646319
0001d0 c7 f2 92 3d a7 98 82 3d 86 b3 38 3d 6f 81 9d bd
       0.07175212 0.063767724 0.045093082 -0.07690703
0001e0 17 a7 b3 bd 90 c0 9a 3b d3 8e 8f bd 50 65 b7 bb
       -0.08772104 0.0047226623 -0.070096634 -0.005596794
0001f0 b6 cb a8 bd 06 57 b2 bd ad c3 8a 3d 44 66 d6 3c
       -0.0824198 -0.08708005 0.067756034 0.02617181

gat1.linear.weight f4 [128, 128]
000000 21 4c 03 bd 9e ee 21 bc b0 6e b5 3c ab 11 50 3c
       -0.032055024 -0.009883551 0.022147506 0.012699525
000010 7e 19 dc bc fc cb 11 bc e8 87 da bd fd 0f 9a bd
       -0.026867624 -0.008898731 -0.10670453 -0.07522581
000020 85 7c 91 3b 3b 71 8c bc 57 79 38 bc 0b cf 85 bd
       0.0044398927 -0.017143836 -0.011259398 -0.06533631
000030 f6 d9 87 bd a9 91 86 bb 68 fc 6d bc de 98 b4 3d
       -0.066333696 -0.0041067195 -0.01452551 0.088182196
000040 e0 02 87 bd 9a df 98 3c 42 84 88 bd a1 f8 98 3b
       -0.06592345 0.018661309 -0.06665851 0.0046683108
000050 7e cd 3b 3d 71 35 b2 3c ef 92 f2 3d ca 1a 9e bd
       0.04585027 0.021753998 0.118444316 -0.07719953
000060 b2 8a 27 3c 38 fc bd 3c f4 3b f9 3b 58 e6 f9 3c
       0.010225939 0.023191556 0.007606024 0.030505344
000070 1c e1 e0 bd 9f 85 26 bd 4e 9c 1b 3d 64 45 82 3c
       -0.10980436 -0.040654775 0.03799086 0.015902229
000080 55 4d a8 3d 01 53 6d 3d 6c b6 56 bb 5b cf 4d ba
       0.08217875 0.057940487 -0.003276254 -0.0007851028
000090 81 c6 f9 bd f7 22 3a bb 83 62 f7 3a 20 33 70 bd
       -0.12196065 -0.0028402188 0.0018873963 -0.058642507
0000a0 97 ef 98 bd 22 05 02 bc 38 3f ff 3c bb 35 9e 3d
       -0.07467573 -0.007935794 0.031158075 0.07725092
0000b0 a6 30 36 3a e9 a4 20 bd 03 a7 6c 3c 37 c8 3d 3d
       0.0006949998 -0.03921977 0.014444116 0.046333518
0000c0 36 db f1 3c eb 35 40 3d 82 96 e5 bd df 44 77 bd
       0.029523473 0.04692642 -0.11210348 -0.060368415
0000d0 d6 15 82 bc d4 41 f7 bc ba b1 5b bd 2c dd 69 bc
       -0.015879553 -0.030182756 -0.05363629 -0.014273923
0000e0 5e e3 48 3d e5 de aa 3d ca 0f e9 3c cd 60 7e 3d
       0.04904496 0.08343295 0.028449912 0.062104035
0000f0 f5 59 59 3d 1e 20 08 bc 29 c4 13 3d d1 5f 7b bc
       0.053064305 -0.008308439 0.036075745 -0.015342669
000100 fd 67 2d bd e1 e2 4b 3d 10 4b 7a bc 85 44 2f 3d
       -0.0423355 0.049776915 -0.015276685 0.042789955
000110 d2 5d 88 bd 71 e3 65 bd 81 c5 5a bd 8f 4e 9c 3d
       -0.0665852 -0.05612511 -0.05341101 0.07632171
000120 dd 54 44 3c e3 20 06 bd 92 72 09 bd 10 e9 4b 3d
       0.011983124 -0.032746207 -0.03355653 0.049782813
000130 f0 dc 6f bd 5d 62 8e bd 38 f2 19 3c 31 09 8a 3c
       -0.05856031 -0.06952355 0.009396128 0.016850086
000140 b4 1b 88 bd 26 c2 a4 3d 5c 72 84 bd ae 9f 5b 3c
       -0.06645909 0.080448434 -0.06467125 0.01340477
000150 74 b7 df 3c 30 ed fb bc 34 a1 22 bd 09 6c c3 bd
       0.027309157 -0.030752748 -0.039704517 -0.095420904
000160 be 71 f3 3c 34 a4 00 3d a8 53 25 3d 8b 2b 50 3c
       0.029717322 0.031406596 0.040362984 0.012705694
000170 9c dd 17 3e d8 7f 3d 3d 9e 5c b1 bd ce 3f d0 3b
       0.14830631 0.0462645 -0.086602435 0.0063552624
000180 32 16 a6 bc 33 0b 63 3d 67 80 81 bd b9 4b b3 3b
       -0.020274255 0.055430602 -0.06323319 0.0054716733
000190 51 35 50 3d ee 66 81 3d 84 58 c1 bd 45 e1 75 3d
       0.050832096 0.063184604 -0.09440711 0.060029287
0001a0 d9 8d b7 bd 9e 3d 17 3d 83 6f 73 bb df 4d a9 3c
       -0.08962602 0.036923997 -0.0037145324 0.020667015
0001b0 fb 65 90 bd 36 c9 82 3d fb c6 8c 3d c0 9c 85 3d
       -0.07050701 0.06386034 0.0687389 0.06524038
0001c0 52 b6 8e bc df 2e f9 bb 5f f9 53 3d aa 0d ed 3c
       -0.017420921 -0.0076044644 0.05175149 0.02893718
0001d0 d8 98 1d bd bb 13 61 3d bc e1 f5 3c cf df 96 3d
       -0.03847584 0.054950457 0.030014865 0.07366907
0001e0 bc 15 ef 3d 6e eb 39 3c ad 65 54 3d de 7f 90 bd
       0.116740674 0.011347635 0.051854778 -0.07055639
0001f0 db 89 fb bc 63 dd 1e bd ad 7b 16 3d 9e d8 30 ba
       -0.030705383 -0.03878535 0.03673904 -0.00067461457
000200 c9 c8 2d bd 26 28 82 bd 9d 78 fc 3c 14 62 c9 bd
       -0.04242781 -0.06355314 0.030819232 -0.0983316
000210 f8 88 91 bd 9f d2 b4 3d 67 17 c4 3c 69 24 10 be
       -0.07106203 0.08829235 0.02393694 -0.1407639
000220 13 1e 95 bc 1a f8 e5 bb b2 e3 ca 3d c2 fb c9 bc
       -0.018202817 -0.0070181014 0.09906711 -0.02465618
000230 f6 64 8e 3c 03 9e 3c bd c3 51 f0 3d 88 49 8a bc
       0.017382126 -0.04604913 0.11734345 -0.016880766
000240 a1 5c 00 3e d1 ce b7 bd c7 a0 16 3e 7e aa d6 bd
       0.12535335 -0.08974994 0.14709769 -0.104817376
000250 d3 d3 9e 3c 34 b6 01 bd 2b 4e 83 3b 5d be 68 3d
       0.019388115 -0.031667903 0.004007121 0.05682217
000260 49 b5 79 3c d0 38 d4 bd 28 c4 94 3d 7d 67 69 3c
       0.015240976 -0.103623986 0.07263976 0.014245865
000270 51 12 a7 3d cf 33 a6 bb c0 ff 0a be 69 5c 0b 3c
       0.081577905 -0.005072094 -0.13574123 0.008505919
000280 da 6e 03 3c 43 0e 08 3e 32 8d 90 3d f6 e8 5f 3d
       0.008022035 0.1328669 0.07058181 0.05466553
000290 50 39 3b 3d 7c f6 61 3c 43 59 99 3c 69 54 43 3e
       0.045708954 0.013791677 0.018719321 0.19075169
0002a0 dd 09 a1 bc c9 06 23 bd e1 05 10 be bb 13 84 3b
       -0.019658023 -0.039801393 -0.14064743 0.0040306724
0002b0 5c d0 e6 3d c0 57 8c 3d ed ba 8a bd 21 47 cc bd
       0.1127021 0.068526745 -0.067739345 -0.09974504
0002c0 f4 55 8d 3d f3 c4 e8 bc 46 44 8e 3d 7b 68 09 be
       0.0690116 -0.028414225 0.06946616 -0.13418762
0002d0 68 94 84 3d 8e d3 7e bd 65 51 14 bd 9c 78 8c bd
       0.06473619 -0.062213473 -0.036210436 -0.06858942
0002e0 7c 84 f0 bd b8 39 c6 3c 0d 5f 7c bc fc 68 9c 3d
       -0.117440194 0.024197444 -0.015403521 0.07637212
0002f0 d9 d8 17 bd 01 c5 e4 bd 5b 59 1c bc cb 19 49 bc
       -0.037072036 -0.11170388 -0.009542788 -0.012274216
000300 68 ce 04 be b3 eb 20 3c ba 80 79 bc 99 c4 b1 3d
       -0.12969363 0.00982182 -0.015228445 0.08680076
000310 36 2a 8d 3d 20 1a aa 3c 4a 22 d7 3c 06 e8 e7 3c
       0.06892817 0.02076441 0.026261467 0.02830888
000320 00 01 b5 3d ac 41 fb 3c 3d 97 b4 bb b4 58 4c be
       0.08838081 0.030670963 -0.005511193 -0.19955713
000330 82 b3 a4 bb 7a d9 94 bd 42 b0 97 3d ac 47 33 bd
       -0.005026282 -0.07268043 0.074066654 -0.043769524
000340 93 fe fe bd 84 13 99 3d 22 54 1e 3e 76 39 7d 3d
       -0.124509 0.074744254 0.15461782 0.061822377
000350 fc fa e1 bd 27 9e b7 bd 70 1c 8b bd b7 e6 e6 3d
       -0.110341996 -0.08965712 -0.067925334 0.11274474
000360 85 61 f7 3c 49 14 cc bd d9 2b 2f 3e 55 95 a4 bd
       0.030197868 -0.099648066 0.1710657 -0.08036295
000370 48 dd 57 bd 7c 50 cc 3c 58 cb 92 3d 69 30 c3 39
       -0.052701265 0.024940722 0.07167691 0.00037229367
000380 37 f4 af bd 92 e9 b0 bd 01 93 c5 3d 4a a0 7a 3d
       -0.08591502 -0.086383 0.096471794 0.06118802
000390 78 55 a8 3c b3 70 ec bd c1 49 5c 3c 69 cf 84 bd
       0.020548567 -0.11544933 0.013445319 -0.06484873
0003a0 7d 53 8f 3d 3b b9 1d 3d 69 68 11 3d c4 74 55 3c
       0.06998346 0.038506728 0.035499964 0.013028327
0003b0 7e 6e f2 bd ee dc 9e 3c a6 df 52 3d c9 ff 0a be
       -0.11837481 0.019392457 0.05148282 -0.13574137
0003c0 64 fb 2f 3c 45 92 0e bb 73 67 69 bd 44 92 30 bd
       0.010741089 -0.0021754664 -0.056983422 -0.04310824
0003d0 02 62 3d 3c ed b7 3e bc 0d 29 63 bd ce da d7 bc
       0.011559011 -0.011640531 -0.05545907 -0.026349451
0003e0 4a c1 94 3d a2 f4 da 3d ea 2a 87 bd c4 cb 09 3e
       0.072634295 0.10691191 -0.06599982 0.13456637
0003f0 4d a5 3c 3d d9 41 ab 3d 45 01 58 bc fa 90 bf 3d
       0.04605608 0.08362169 -0.013183896 0.09353824
